weights/mlp.pt (torch, 64485 bytes, 61 tensors)

model.0.weight f4 [32, 20]
00000000: f90d 1fbe 6604 d7bb b10d 1e3a 55c7 9d3b
00000010: 3111 823f 6b1d 6c3f 4eeb 923d b2de c73e
00000020: cbb6 093e cf31 a4be 2062 00bf f37d 703e
00000030: cf8c e13e 1d07 ad3e ea99 f5be eddd 233f
00000040: 3b88 bdbf 84e5 fabd 189b 87bf 1f92 08be
00000050: 0384 fa3a eb6c c939 ce52 aeb9 e29c 3c39
00000060: 0ce8 4a3f 3fe1 c540 8c43 82be 38b8 2d3e
00000070: b197 9e3e dd2b d2be 797a c6be f4fc 023f
00000080: 6085 6e3e d1a0 d43e 8e47 b2bf 612a 523e
00000090: 1fb7 eabf b5a0 a43e 01ee c0bf c1d6 e7be
000000a0: 068a 283c 89fc 30b8 3396 af3a de6b a2b7
000000b0: 153d 3cbe 9f23 39c1 67c3 8f3c d94d f0bc
000000c0: 8a96 5ebd e8f0 423d 8e14 603c 673c 1dbe
000000d0: 7ce4 ecbc 3c75 c8bd 8516 dc3d 9437 21bc
000000e0: e0c4 2e3e 459b 63bc 80d1 263e 6046 863d
000000f0: 134b 88b7 317e bd38 942c b035 86f8 5cb8
00000100: cc27 80bd c805 26c1 5126 d6bb 3893 9c3c
00000110: 07ff 1c3c a35e 0a3d a791 c43c 5607 2abc
00000120: 1eda 823b a571 4ebc e5f6 7e3d 1f8d 1b3a
00000130: a669 7d3d 4b6b b739 0c2c eb3d b202 a73c
00000140: 0786 053b d500 e839 9811 0e3a d6b8 42b9
00000150: 0a74 583f 885f ce40 bed4 8fbe 9330 2e3e
00000160: a0ce 9a3e edca f8be bce7 02bf c55d ec3e
00000170: 0b51 393e d20f ae3e 2b90 bebf 6833 0a3e
00000180: 91b4 e7bf becf 883e f438 bebf 98d2 0ebf
00000190: 855f 163b c9f7 bfb9 b219 4dba f682 1a39
000001a0: 16f0 553f e600 d440 7052 89be 4360 5c3e
000001b0: 9a0c af3e ea9d c8be 46e7 bfbe 51ee 0c3f
000001c0: 8bd0 953e 5c8a e33e eb3c b3bf c28b 453e
000001d0: ed4c f9bf eea6 a03e 201f c2bf edfe f3be
000001e0: 1bf9 4fba 2872 32c0 6569 21bb 8f92 7737
000001f0: f7fb a3be df7c ddc0 8431 933c 0246 823d
00000200: 8f66 803d a705 4f3d 42da 53be 3fc0 033f
00000210: 2c1d 0dbe 933b 70be 4303 cfbb 79b0 d7be
00000220: 7579 8bbd fed5 e1be b951 f7bd d953 68be
00000230: 88f7 01ba 2fa4 b138 9cb4 1f38 7001 1139
00000240: 098e 16be 9998 f7c0 ef0d 603c 8c4d 69bd
00000250: 4d19 9fbd 7034 143d de67 993d 71e8 8fbd
00000260: f056 cebc 6398 5dbd 55c0 653e d416 b23c
00000270: 5ce6 993e 5dd7 2f3c 3e0a 273f 0ece 003e
00000280: 5bb2 55ba c461 4540 d35d a3bb 3383 493a
00000290: c64e cbbd 1c1a 8e40 75a7 433d 900b ab3d
000002a0: 09da efbd cb45 9e3d b895 e5bb 5f00 05be
000002b0: cf5f d2bd 659a f1bd b0a3 7b3e 7063 873e
000002c0: c27e e03d 294f f33e d112 873e 2146 6a3e
000002d0: 4607 8539 e046 2cc0 b646 03bb bfa4 ed38
000002e0: 5623 84be 93a8 dcc0 506a 7f3c 3858 24bc
000002f0: 8fcb 4bbb 2772 57bc 86f0 66be 542b e63e
00000300: 68cd 48be 0f43 85be 1b07 efbc 6a03 debe
00000310: 6444 90bd 8f0b e7be 52d7 c5bd 3da0 7bbe
00000320: 7aa2 023b b7e4 a7b9 20a7 04ba cc8b cbb9
00000330: b23d 433f fbbe bf40 f9f6 73be b489 413e
00000340: 1c8b 9e3e 1d60 cbbe 4e65 b3be 8131 073f
00000350: 378b 8c3e 6e87 d03e 593c b7bf d7f7 d43d
00000360: 5cc1 ecbf 0e2a 473e c383 babf 6fc9 0cbf
00000370: 6fcc 983d 599d 5f3b 3463 9b3b fad9 3eba
00000380: 075b 84bf 5fa9 1bc0 8d1d bc3d ac6c 92bd
00000390: 65c8 cfbe 369a e43e 17e5 9d3e 3d91 f3be
000003a0: a5a9 9dbe 7032 b5be 6cb8 423f acf5 38be
000003b0: 6d28 803f 8f79 9cbe 21d5 873f 8250 c53e
000003c0: fd6a bbb7 575d 3b39 313c 1239 06c9 0cb9
000003d0: c48e d1bc 36e7 a641 9d02 463c fb2c 14bd
000003e0: d9d9 34bd bf44 babc ddac 8e3d 99e7 443d
000003f0: 5c07 733d d4f0 283d e147 a03d 694a b9b9
-0.15532674 -0.0065618036 0.0006029262 0.004815022 1.0161496 0.9223239 0.07173787 0.3903709
0.13448636 -0.3206925 -0.50149727 0.23485546 0.4405274 0.3379449 -0.4796899 0.64010507
-1.4807199 -0.12250808 -1.0594206 -0.13336991 0.0019112829 0.00038418858 -0.0003324956 0.0001798752
0.79260325 6.183746 -0.2544216 0.16964805 0.30975106 -0.4104909 -0.38765314 0.51167226
0.23293066 0.41528943 -1.3928087 0.20523979 -1.8337134 0.3215386 -1.5072633 -0.45281032
0.010286814 -4.219686e-05 0.0013396203 -1.9362134e-05 -0.18382676 -11.571197 0.01754923 -0.029333996
-0.054342784 0.047593027 0.013676776 -0.15355073 -0.028917544 -0.09787986 0.10746483 -0.009839911
0.1706729 -0.013892 0.16290855 0.06556392 -1.6247423e-05 9.035727e-05 1.3125996e-06 -5.2683543e-05
-0.06257591 -10.376411 -0.0065353294 0.019113168 0.009582288 0.03378166 0.023995234 -0.010377726
0.0039932868 -0.012600337 0.062247176 0.00059338094 0.061868332 0.0003498442 0.11483011 0.020387027
0.0020374076 0.00044251108 0.0005419492 -0.00018570138 0.8455206 6.4491615 -0.28091997 0.17010717
0.30235767 -0.4859232 -0.5113485 0.4616529 0.18097322 0.33996445 -1.4887747 0.13496172
-1.810198 0.26720995 -1.4861131 -0.5579009 0.0022945118 -0.00036614973 -0.00078239583 0.00014735371
0.8356947 6.6251097 -0.26820707 0.21521096 0.34189302 -0.3918298 -0.37481135 0.5505114
0.29260668 0.44441497 -1.4002966 0.19291595 -1.9476601 0.31377357 -1.5165749 -0.4765543
-0.0007933543 -2.7882175 -0.002462947 1.4756471e-05 -0.3202817 -6.921493 0.017967947 0.06361009
0.062695615 0.0505425 -0.20688727 0.5146522 -0.1378066 -0.23460226 -0.0063175275 -0.42126825
-0.068102755 -0.44108576 -0.12076134 -0.22688235 -0.00049578445 8.470599e-05 3.807676e-05 0.00013828813
-0.1470262 -7.7373776 0.013675197 -0.05695872 -0.077684976 0.03618282 0.07490514 -0.070267566
-0.02518794 -0.054100405 0.2243665 0.0217394 0.30058563 0.010732499 0.65250003 0.12578604
-0.0008151882 3.0840921 -0.00498555 0.0007687092 -0.09927134 4.440687 0.04776712 0.08351815
-0.11711509 0.07728156 -0.0070063733 -0.12988423 -0.1027218 -0.117970265 0.2457416 0.26443052
0.10961677 0.47521332 0.26381543 0.22878315 0.00025373156 -2.6918259 -0.002003116 0.00011331727
-0.2580821 -6.895578 0.015589312 -0.010030799 -0.0031096672 -0.013149775 -0.2255269 0.44954932
-0.19609606 -0.26027724 -0.029178193 -0.4336198 -0.070442945 -0.45126006 -0.0966021 -0.24572845
0.001993327 -0.00032023128 -0.0005060304 -0.00038823334 0.76266015 5.992063 -0.23824681 0.18900186
0.30965507 -0.39721766 -0.35038227 0.5280991 0.27449962 0.40728325 -1.4315292 0.10398834
-1.8496509 0.19449636 -1.457146 -0.54994863 0.074608676 0.0034120886 0.0047420505 -0.0007280406
-1.0340279 -2.4322126 0.09185324 -0.07149634 -0.40582576 0.44648904 0.30838844 -0.47571746
-0.3079349 -0.35390043 0.76062655 -0.18062466 1.0012337 -0.30561492 1.0611917 0.38537985
-2.2341957e-05 0.00017868482 0.00013946068 -0.00013426327 -0.025580771 20.862896 0.012085584 -0.03617571
-0.04415307 -0.022737859 0.06966565 0.04807243 0.05933319 0.041245297 0.0782621 -0.0003534139

model.0.bias f4 [32]
00000000: 0a99 dcbc 1827 9b3d 9f13 9b3d a9d3 1c3b
00000010: 616d 0e3d 3a27 c3bb 6d68 44bd 71e5 33bd
00000020: 8295 37bd 05e9 6d3d 8fb9 28bd b9ba 2f3c
00000030: 8203 0e3d 0d7d 2fbd 5b5c 90bd 8abb 803d
00000040: b32a 843b 07b2 a7bd 8680 86bd 2569 8dbc
00000050: 8133 b2bd dfb4 6b3a 156a 553d e236 ad3d
00000060: fd6a a6bd 556d 04bd e4ac 073d 38b7 27bd
00000070: cf6e 883d 4dc7 79bd 4526 a9bb ded4 29bd
-0.026928443 0.07575816 0.07572102 0.002392987 0.03477228 -0.005955604 -0.04795115 -0.043919984
-0.044820316 0.058083553 -0.041192587 0.0107256705 0.034671314 -0.042843867 -0.070488654 0.0628577
0.0040334105 -0.08188253 -0.06567483 -0.01726205 -0.0870123 0.00089914905 0.05210312 0.08457734
-0.08125875 -0.03233083 0.033123866 -0.040946215 0.0666176 -0.060981084 -0.005162033 -0.04146277

model.1.weight f4 [32]
00000000: b1ed 813e a667 943e e8a5 683e 1f45 1c3e
00000010: 3b90 8c3e df32 6e3e 5d8c b73e d524 613e
00000020: 9440 ab3e 8d28 a63e 4eb8 7a3e d9b7 8b3e
00000030: e332 4a3e e96f b23e a175 b93e 2299 9e3e
00000040: fccf 8a3e c1fc b33d 6ed5 a63e f684 093e
00000050: 175d 623e 0cac bb3d 92c6 563e 8fd5 9b3e
00000060: fc73 a73e efc7 aa3e f563 963e 526b 953e
00000070: be28 aa3e 24b3 db3e ffa2 b13e a759 f63d
0.25376657 0.28985327 0.22719538 0.15260743 0.2745379 0.23261593 0.35849276 0.21986707
0.33447707 0.32452813 0.24484369 0.27288702 0.19745974 0.34851006 0.36222556 0.30976206
0.27111804 0.08788443 0.3258471 0.13429627 0.22105823 0.09163675 0.20974186 0.3043637
0.32705677 0.33355662 0.29373136 0.2918344 0.3323421 0.4291011 0.3469467 0.120288186

model.1.bias f4 [32]
00000000: 6a62 aebe 1515 87be d151 14be 39a5 663d
00000010: eb78 90be c8e6 22be 1ea8 9cbe d64d 6b3e
00000020: b298 8fbe 11c9 8dbe 23a4 44be 5dc1 51be
00000030: fd44 f0bd 3582 98be 8f64 9bbe cd1c 253e
00000040: 3081 c43c 3c5d aa39 4650 8ebe c5da aa3e
00000050: ae00 243e b480 8abd 40f7 153e 25cf 82be
00000060: 7b75 8cbe e091 91be 8712 5ebe 0ff1 263e
00000070: e3bd 8ebe d61d 7cbe 00c5 94be 0bd0 01bb
-0.3405946 -0.26383272 -0.14484335 0.056309912 -0.28217253 -0.15908349 -0.30597013 0.22978911
-0.28046185 -0.27692464 -0.19203238 -0.20483918 -0.117319085 -0.2978684 -0.30350158 0.16124268
0.023987383 0.00032494392 -0.2779562 0.33370033 0.16015884 -0.067628294 0.146451 -0.25548664
-0.2743338 -0.28431606 -0.21686755 0.16302894 -0.27879247 -0.24620757 -0.2905655 -0.001980784

model.1.running_mean f4 [32]
00000000: e708 4340 9db0 8e41 9ed0 10c2 1c35 02c2
00000010: 3fca 9241 92e3 9841 9e3d b9c1 eca8 c0c1
00000020: d557 7641 e52b b8c1 faac 8841 82a7 e3c0
00000030: 0e47 8342 7a4c b7c1 ee8d 7941 27e5 40c1
00000040: 62b5 0a41 ff90 dcc1 8d2e b8c1 ea8d e9c1
00000050: 4f7f e540 3b76 39c1 ada6 88c1 16c9 6841
00000060: bb24 7741 e189 b4c1 77dd 72c0 7273 b141
00000070: c7e3 7441 fc72 8440 8289 7741 5edd 92c1
3.0474184 17.836237 -36.203728 -32.551865 18.348753 19.111118 -23.155087 -24.082481
15.396443 -23.021433 17.084461 -7.1141977 65.63878 -22.912342 15.597151 -12.055945
8.669283 -27.570799 -23.02273 -29.194294 7.1717906 -11.591365 -17.081385 14.549093
15.446467 -22.567324 -3.7947671 22.18137 15.30561 4.139036 15.471071 -18.35809

model.1.running_var f4 [32]
00000000: dee6 8243 e554 f43f cf56 923f bfc8 073d
00000010: aadc fc3f 64fb 0240 bf20 5846 5e63 ea3d
00000020: bb42 8446 df6a 4946 be1c ef3f dea0 7642
00000030: f4ea f23d 7397 5146 7eb5 9146 323c 4e3f
00000040: bbe3 fd40 4b5c a840 49b1 4e46 b855 bf3e
00000050: 749a af3f f49e 7c3f 4547 ad3f c998 7646
00000060: 6e13 8246 8d20 5246 c92f 1c42 e0ff 933d
00000070: 9df3 9146 3b43 e641 4825 8e46 fd3a e441
261.80365 1.9088408 1.1432742 0.03315043 1.9754841 2.0465937 13832.187 0.11444734
16929.365 12890.718 1.8680646 61.657097 0.1186122 13413.862 18650.746 0.805606
7.934049 5.261266 13228.321 0.37370086 1.371901 0.98680043 1.3537375 15782.196
16649.715 13448.138 39.046665 0.07226539 18681.807 28.782827 18194.64 28.528803

model.4.weight f4 [32, 32]
00000000: ae81 9b3c a001 1d3d 1800 033d 1cbf fb3c
00000010: 15e3 4f3d d0cf b63c b573 af3a d98b d6bc
00000020: d948 84b9 f8fb 0dba 981c 773c beb4 dd3c
00000030: c905 f9bc b4d3 113b c7f8 63bb 847f fcbb
00000040: 4387 4d3f 3ab0 0d3c 3538 c73a 56cf 95bc
00000050: b7e2 23bd 8be8 643e 3e93 5cbc 1525 50b9
00000060: a345 f7bb eb3a f33a 2126 fcbc 7bf2 d9bc
00000070: 9679 b3bb 4738 d6bd ca0e 96ba 4c9d 08bb
00000080: fdfe 43bc dd86 a3bb 9a67 c53b 3e80 c13b
00000090: 2b6e 28bc 7f01 5eba 8b4d 97bf e4c0 e93b
000000a0: 99e7 81bf d9f2 9fbf 1f26 c9ba 8a00 853b
000000b0: eb8b e83b 8a0e 9bbf 6b8c 7fbf 8ecc beba
000000c0: e5db 773b 0b92 953b 9004 a0bf b597 feba
000000d0: 9b47 3c3c 7009 f53b 898e 1d3c c028 89bf
000000e0: a7d5 85bf 5604 9ebf dc2a c13a c6f1 893b
000000f0: 6837 85bf 6a1b 603a 4111 83bf 9bf4 2c3b
00000100: 444b 53bd 8453 acbb 3cb5 2c3e 1686 95bd
00000110: 57ab f5bb eaec b1bb 9d01 b6ba a8a0 c3bc
00000120: b825 3bbb c241 913b fd6e 39bb 1f64 54bd
00000130: e3c4 c13d 7c66 a03a bbbc 1dbb 1958 b03e
00000140: abb9 13be df34 243c c844 523b 7124 97ba
00000150: 96e4 b8bc 7d50 973c 2af6 b0bc 69f4 d3ba
00000160: 86cd d3ba 3183 c43a 066d 9bbd 6fdb 66be
00000170: c687 73bb a3e1 6c3d b708 9aba 324f a8bb
00000180: 6378 cebd 4f32 093d d52b 933b dd22 5dbc
00000190: 9014 923c b3fa 453c b451 063a fd1e 7fbc
000001a0: fc4b 9337 6ae7 31ba 05c0 c53c cf37 e2bb
000001b0: fd91 8c3e f926 9fba 7e50 c0ba 6ea9 04bc
000001c0: 7bb0 3c3d 6ea8 293c f9b3 0cbb 738c 423f
000001d0: 35fd 53bc 4037 fd3d 1df4 93bc 0208 59ba
000001e0: feeb 03ba cf74 0539 fa4a f63d e63f 8fbc
000001f0: 1361 8aba fe68 ed3d a91c 6cba 6de6 173c
00000200: 6a58 04bd 4b45 573e 9e8c 65bc 839a 1bbe
00000210: 950d 13bd 8266 94bc a3db ba3b 7601 23bf
00000220: 50bf 0e3c 355d 823a eb7c 59bb c99c d5bb
00000230: a29c d1bd f900 443b 580b 2d39 7bd1 ab3c
00000240: 60c7 823c dd35 6d3c b1d1 923b 1c4a 2c3a
00000250: bad4 8ebe 8ae8 29be b35f b53c 40c7 313b
00000260: 69fb 953b 4867 4f3b 67ab 26bd 10ba f8be
00000270: de7b 883b 68b3 f4bc 2ff8 8039 bb4d ce3c
00000280: 359b 5cbf a526 b73c d335 31bf 232b 73bc
00000290: b5c8 a13b 3e75 123b 2ea2 93b8 8d68 7ebc
000002a0: ad2e 1bbb fef2 103b b7d5 b13c ae50 32bf
000002b0: 852b 4fbc edb6 0c3b 89b8 dfb9 a38e 28bd
000002c0: ead2 19bc 24ce 8abf cf76 7839 3b76 5b3b
000002d0: e5b8 93bc 9ccf 13bc c9d2 92bc eaf8 2abb
000002e0: 35f8 6eb9 d674 17ba 6b6e 18bf 3f41 ebbb
000002f0: 472a cb3a 3636 ddbd 304b acba d84f a5bf
00000300: eb8b 8dbd 336f c93b 122a 433e 1bf5 e03d
00000310: 8aa9 a23a 4de8 8cba cb6f 343b 9cec a2be
00000320: 5a39 eb3a 8e3a bdba 138e 01ba 0bcc 98bd
00000330: 9239 59be de88 93ba b6e2 3a3b 4d65 d53b
00000340: 59d8 28bc 7c4b ac3d 9288 bcba 589f 09bc
00000350: 27bc bdbc 47a3 843c 2c49 8ab8 76f3 27ba
00000360: 9961 9f3a 36c8 6c3b 1b82 a9bd 09b4 833e
00000370: a93a b83a c291 5a3d 0fa8 2eba d172 92bc
00000380: 0f23 05bd 9953 babb 8083 a5bc 9fbd d43c
00000390: 4368 01bc 62d6 52bc cac1 afba a906 c2bd
000003a0: 4f1c 02bb b709 a0bb 9e54 e0bc b7cf 903d
000003b0: 6578 c73d 37ee deb9 9add 88b8 b581 ffbc
000003c0: f6b7 2ebd 090e e23c faac 063b 5333 b4bb
000003d0: c75b f2bc b7a2 413e 0e22 f63e 6ca6 0b3a
000003e0: d86e 973a 92e7 03bb 676a 94bc 7f64 5abd
000003f0: 068c 3a3b 1322 cebe 0305 f0ba 6d79 d03a
0.018982735 0.038331628 0.03198251 0.030730776 0.05075367 0.02231589 0.0013385924 -0.026189731
-0.00025231278 -0.00054162694 0.015082501 0.027063724 -0.030398266 0.002225143 -0.0034785734 -0.0077056307
0.8028452 0.008647973 0.0015199246 -0.018287342 -0.040011134 0.22354333 -0.01346284 -0.0001985024
-0.007546143 0.0018556988 -0.0307799 -0.026604882 -0.0054771407 -0.10459953 -0.0011448499 -0.002084571
-0.011962649 -0.004990442 0.006024313 0.0059051802 -0.010280172 -0.0008468851 -1.1820539 0.00713359
-1.0148803 -1.2495986 -0.0015346444 0.004058902 0.0070967576 -1.2113812 -0.99823636 -0.0014556812
0.0037820276 0.004564529 -1.2501392 -0.0019423874 0.011491681 0.0074779317 0.009616503 -1.0715561
-1.0455827 -1.2345073 0.0014737505 0.00420973 -1.0407534 0.0008549007 -1.023964 0.0026390913
-0.05158545 -0.0052589793 0.1686601 -0.073009655 -0.007497232 -0.0054298537 -0.0013885979 -0.023880318
-0.0028556418 0.004432888 -0.0028294914 -0.051853295 0.09461381 0.0012237574 -0.002406879 0.34442213
-0.14426295 0.010022371 0.0032084454 -0.0011531246 -0.022569936 0.018470997 -0.021601755 -0.0016170862
-0.0016159273 0.0014992711 -0.07589154 -0.22544645 -0.0037159785 0.05783237 -0.0011751865 -0.005136394
-0.10081556 0.033495244 0.004491309 -0.013497082 0.01783207 0.012083697 0.0005123869 -0.015571353
1.7559149e-05 -0.00067864975 0.024139414 -0.0069036256 0.2745513 -0.0012142352 -0.0014672426 -0.008097036
0.046066742 0.010355098 -0.0021469577 0.7599556 -0.012938787 0.12364054 -0.018060738 -0.00082790863
-0.0005032419 0.00012727383 0.120260194 -0.017486524 -0.0010557495 0.11592291 -0.0009006956 0.009271246
-0.03231088 0.21022527 -0.0140105765 -0.1519566 -0.035901625 -0.018115286 0.0057024523 -0.63674104
0.008712605 0.0009945991 -0.003318603 -0.0065189344 -0.102349535 0.0029907806 0.00016502792 0.020973912
0.01596421 0.014478174 0.0044805636 0.00065723225 -0.27896672 -0.16592613 0.02214036 0.002712682
0.0045770896 0.0031647254 -0.040690806 -0.48579454 0.0041651567 -0.029870704 0.00024598974 0.02518355
-0.8617433 0.022357294 -0.69222754 -0.014841828 0.004937256 0.0022347714 -7.0397145e-05 -0.015527857
-0.0023678944 0.002211749 0.021708352 -0.6965436 -0.012644653 0.0021471337 -0.00042671364 -0.041151654
-0.009388665 -1.0844159 0.00023695383 0.003348722 -0.0180325 -0.009021666 -0.017922776 -0.0026088306
-0.00022789913 -0.0005777603 -0.59543484 -0.007179409 0.001550027 -0.108013555 -0.0013144966 -1.2914991
-0.06911453 0.006147289 0.19059017 0.1098425 0.0012410146 -0.0010750383 0.0027532454 -0.31821144
0.0017946169 -0.0014437006 -0.000494213 -0.07460793 -0.21213368 -0.0011256 0.0028516478 0.00651232
-0.010305488 0.08412835 -0.0014383963 -0.008399807 -0.023161007 0.016191138 -6.593982e-05 -0.0006406823
0.0012159824 0.0036130077 -0.08276769 0.25723293 0.0014055568 0.05336166 -0.0006662616 -0.017877014
-0.032504138 -0.005686235 -0.020204306 0.025969325 -0.007898393 -0.012868496 -0.0013409194 -0.094739266
-0.00198533 -0.0048839706 -0.027384099 0.070708685 0.0973976 -0.00042520624 -6.526262e-05 -0.031189779
-0.042655908 0.027594583 0.002054988 -0.0054992824 -0.029584778 0.18909727 0.48072857 0.0005327228
0.001155342 -0.002012704 -0.018117143 -0.053318497 0.0028464808 -0.40260372 -0.001831204 0.0015905328

model.4.bias f4 [32]
00000000: 0432 58bd 3f58 4d3c 2731 213d 2928 47bd
00000010: a6aa 0fbd 7f87 653d 7965 753c 042a 283d
00000020: 6f76 0a3d 8840 8abc 960c 15bd 7020 53bd
00000030: 6a7d 68bd 2283 39bd 0ccd eb3b 9a39 3b3d
00000040: 36be 3fbd c3fd 1bba eef1 20bd 7e60 bb3c
00000050: fd78 9f3b 2574 0b3b fa71 303d 4b64 9cbc
00000060: 3b62 413d 834c 633b 5897 fdbc bfdf 883d
00000070: c416 383d 8a15 b1bc c82a 253c 597a dabc
-0.052782074 0.012533247 0.039353516 -0.048622284 -0.035074852 0.056037422 0.014977806 0.041055694
0.033804353 -0.016876474 -0.036388956 -0.051544607 -0.05676023 -0.045291074 0.0071960744 0.04570923
-0.04681226 -0.0005950594 -0.039293222 0.02287316 0.004866718 0.0021278944 0.043077447 -0.019090792
0.04721282 0.0034683056 -0.030955955 0.06683301 0.044943586 -0.021616716 0.010081001 -0.026669668

model.5.weight f4 [32]
00000000: 00af 5c3e aa1c dd3e 9101 d33d 4cd3 1d3e
00000010: ce38 a03e 7fea 933e 3cdf b43d 6623 ab3d
00000020: 5190 793e d5ff af3d 3ab7 393e b5de 993e
00000030: 57ef c43d b99c 843e 51be 203e e0b6 c53d
00000040: 0eed 913e 130b ba3e 00a6 be3e e9f4 d43d
00000050: 88f7 8b3e 9cef 943e 8441 5a3e c15d a73d
00000060: aaa3 d23d 469f d43d 382b 883e 2b1b 913e
00000070: 919a 9d3e 6258 5d3e 9318 bb3e 96c5 743e
0.21551132 0.4318593 0.10303033 0.15412635 0.3129334 0.28889844 0.08831641 0.08356361
0.24371459 0.08593718 0.18136302 0.30052724 0.09615963 0.2590082 0.156976 0.09654021
0.2850117 0.36336574 0.37236023 0.103982754 0.2733729 0.29089057 0.21314055 0.08172179
0.10285123 0.103819415 0.26595473 0.2834104 0.30781987 0.21615747 0.36542186 0.23903498

model.5.bias f4 [32]
00000000: ea34 c5be b111 96be 9a54 0ebc 4fbb 7f3d
00000010: 63ba a6be 6862 a1be 8592 f8bc 4b8d 5bbd
00000020: e801 8bbe 8207 a53d bb40 5dbe ee7e 83be
00000030: 7fcc 7c3d 839d 7abe 319f 0fbd 630f a4bc
00000040: 6398 9fbe 279f 7ebe 2823 81be 1596 ae3d
00000050: 22b1 8cbe 1931 8dbe 3128 73be c837 3abc
00000060: cb70 ce3d 8714 ae3d 3e24 b3be 7193 abbe
00000070: 88b1 56be dd74 07be 6685 7fbe 2762 2bbe
-0.38516933 -0.29310372 -0.008687163 0.06243449 -0.32564077 -0.3152039 -0.030343303 -0.053601544
-0.27149892 0.080580726 -0.21606724 -0.25682777 0.06171846 -0.24474148 -0.035063926 -0.020026868
-0.3117095 -0.248654 -0.25222135 0.085247196 -0.27478892 -0.2757652 -0.237458 -0.011365838
0.10080107 0.08500009 -0.34988588 -0.33510926 -0.2096616 -0.13228174 -0.24953231 -0.16736661

model.5.running_mean f4 [32]
00000000: 3e1e 983c 9587 cfbe fb69 1c3d ae5c 623e
00000010: 9cc8 afbe c557 26be 3d50 91bb 60d1 5d3d
00000020: 8014 c03d f632 f13d 2cf3 2ebe 87d5 b8be
00000030: f153 8e3d 4eb1 aabe b5cd be3d 922f 703d
00000040: efc9 adbe e1c3 0dbf bba7 e0be 3115 443e
00000050: 562c 62be 6182 95be ef46 6dbd dcc9 36bd
00000060: dc1f 893e d843 433e b162 9cbe dfbb e9bd
00000070: b2fc e6be c928 fdbd 54bf f9be 24a0 fdbd
0.018569108 -0.40533128 0.03818701 0.22105667 -0.3433274 -0.16244419 -0.004434614 0.054154754
0.0937891 0.11777298 -0.1708495 -0.36100408 0.06949604 -0.33338398 0.09316579 0.058639117
-0.33943126 -0.5537701 -0.43877968 0.19148709 -0.22087225 -0.29201034 -0.057928976 -0.0446261
0.2678212 0.19068849 -0.30544046 -0.11412787 -0.45114666 -0.12361295 -0.48778784 -0.1238406

model.5.running_var f4 [32]
00000000: 7ebb 873c e9d3 ad3e 1538 b73b 02ae e53c
00000010: 39ed d73d a9dd 163d 02ae ab3b 9429 c63b
00000020: 046b f33b b671 c13c 9870 903c cd14 b73d
00000030: 7dd0 7e3c 1a4b a53d 6477 d83b ad1a 7d3b
00000040: 9f28 973d a3a3 143f 191d a03e 4cb0 da3c
00000050: 7700 623d 0fb5 a73d 6795 523c 1e84 803b
00000060: 4d37 143d 20c9 2f3d 9e99 433d 5517 ef3c
00000070: 032e ef3e 4b3c b03c f6c1 f23e 7227 533c
0.016568895 0.33950737 0.0055914023 0.028037075 0.105432935 0.036832485 0.005239249 0.006047437
0.0074285287 0.023613792 0.017631814 0.08939514 0.015552637 0.08070965 0.0066060293 0.0038620636
0.07380795 0.5806219 0.312722 0.026695393 0.055176225 0.08188831 0.012853003 0.0039219996
0.03618555 0.042916417 0.047753923 0.02918593 0.46714792 0.021513125 0.47413605 0.012887822

model.8.weight f4 [32, 32]
00000000: be2a 3dbd 8b5d 4fbc 5a41 b2bc 4917 c2bb
00000010: c57a 853c f2f0 b6bb b654 95bd 4036 213b
00000020: 6595 7d3c 7f9d 5dbb b358 e93a 9668 a2bb
00000030: 255d 91bc e383 d0bb 48ea 3b3e a370 29bc
00000040: 7b6c 653c 35a0 873d 32a6 abbc 897a adba
00000050: 3ee8 04bb f950 f2ba 09dd a4bc 738d 02be
00000060: 1b00 2dbe d681 603e c4e0 6f3b 7709 3b3c
00000070: 2f59 253d a054 a3bc 4495 bdba c797 29bc
00000080: c917 df3d 112e d0bd 6957 1b3e 17a2 dcbb
00000090: bf85 6fbd 5faa bdbd b31e c4bc fde7 a0bd
000000a0: 13c4 c5bd 10e6 fdbc 4fb4 88be ce60 b9bc
000000b0: 28d2 71bd ea2d 63be 69ec 5bbc 0b65 95bc
000000c0: 4941 05bd f28c b2bd 26b4 f3bd e224 1c3e
000000d0: 8679 2bbe 3a7e 6dbe e98e b1bd 06b4 30bd
000000e0: f403 63bc e7ca 32bd ecb3 2f3d c607 2abc
000000f0: ecdb 603f 7bbe c0bc efae 0ebe 784a cd3d
00000100: 7830 fabd e7af 4c3f 71c0 aebc 0449 863b
00000110: c3e7 143d a555 eb3d 7fd6 d5bc 8c5c 87bd
00000120: e863 7b3e c31e dd3c e5d1 783c b176 83bb
00000130: f26d f4bb c11f 87bc d684 43bc 05ad a43d
00000140: 6326 eb3d 50f1 15be 27e7 0dbd 1429 b53c
00000150: deaa 43bc 64fb f33a 7ba8 04be 84d1 f83d
00000160: 42b2 923c f622 ff3a 2da4 ecbd b158 b13d
00000170: 0a2c e3bd 69f1 3abd 462f 49bd 9214 e8bb
00000180: 1ca6 7abe bbcc 8dbe e906 4cbc a8fe 43b9
00000190: 8c73 dbbd 6db0 cabc 4fd6 edbc 423f 8c3d
000001a0: c879 3cbd e8df 573b a12e 79bd 4e8c 13bc
000001b0: d6a3 c1bc c19f 803e 062b 15bc d4c6 b3bb
000001c0: 4b47 babd f3bb 84be b3c8 97be 5200 1a3c
000001d0: 797b d3bd 1bbd 58bd 2fe0 59bc 63a1 52bc
000001e0: e8a5 163c 8c8b a43a 4d2b eabd ed1b 8a3e
000001f0: 32e7 91be a1cd 293d 24fb 8cbe 56dc b2bb
00000200: 36ad 75bd fc73 2cbc fbe8 07bc 9235 a0bb
00000210: 5c97 92bd 6972 3abd ac21 dc3b b503 f93c
00000220: 9a89 053d a263 39bc d447 3fbd d401 64bc
00000230: 9e90 9d3b 3ad9 17bd 18f2 26bb 6761 28bb
00000240: 6682 2abd 5144 19bf 5f66 203f 62af 4ebc
00000250: da8e 5bbd b835 11bd 46e3 65bc 9e21 ad3b
00000260: 8d69 3fbc 3370 e3bb 9490 89be 08dd 4cbd
00000270: 8b6d 58bc 1d9e 62bc a4f7 f5bb 65ac 53ba
00000280: 3655 dd3d dead 163f 6a34 8dbb efbf 373e
00000290: 1a43 a1bd 8ff1 e5bc d510 313b a458 673c
000002a0: c8e2 213c afc8 763b 881f 1abd 6953 d13b
000002b0: 716f 3d3b 9dbe c9bb 9da5 44bb 0cc1 383b
000002c0: 25ef a0bc 8ae7 5c3c 0fcc 613c 5ce1 023a
000002d0: 028e 07bd 6e00 f0bb 8928 d1ba edaa 24ba
000002e0: 5f2f c83a ae75 e4ba 0d61 87be b6af 08bd
000002f0: 35df c53c a80f 0fbd ddc1 2d3c d20d 37bb
00000300: b0c3 dabc 9000 9c3b b864 b4bb ca14 d0bb
00000310: c98b a7be fd31 22bd 1ccd 4cbd e6c7 043d
00000320: 01c8 2dbc 2a23 643e 670b 29be 3d2f 94bb
00000330: 1034 8dbc f2e7 94bc 259b 0cbe 3611 f03d
00000340: 1717 95bc e521 0f3d d275 adb9 49f7 54bc
00000350: d6f9 debd eefc d3bb d127 69bd 167d ebbd
00000360: 3759 1fbe 4c70 2cbe ab94 6cbc 1945 5ebe
00000370: cd9d 3ebc 1bdb d2bc b56b d33c dda4 7d3b
00000380: d611 2f3c 32e9 033d e5ee 0ebe 6b79 34be
00000390: 4c7d b1bc 2d28 a7bc 1a1b 913d 41ab 8d3a
000003a0: c449 edbb 4edc b3bb 881c e4bd 278a d43a
000003b0: 2251 4cbc ce29 6b3a 3b45 3abc 05f9 d3bb
000003c0: ebec eebc 1843 10bc 29f1 21bc deb2 35be
000003d0: 615c d9bc 8036 483c bee4 b5bc 15fa 163e
000003e0: 32ef 443e d767 b4bb e31c 38bd 5e46 8fbe
000003f0: 8d6d 093c 31a8 4fbc a345 533c 176d c7bd
-0.04618334 -0.01265658 -0.021759678 -0.005923186 0.016293893 -0.005582922 -0.07291548 0.0024598986
0.015477513 -0.0033815799 0.0017802924 -0.0049563153 -0.01774461 -0.0063633784 0.1835109 -0.010341796
0.014002915 0.06622354 -0.020953272 -0.0013235371 -0.0020280029 -0.0018487266 -0.020124929 -0.12749271
-0.16894571 0.21924528 0.0036602477 0.011415831 0.040368255 -0.019937813 -0.001446404 -0.010351128
0.108932085 -0.101650365 0.15170063 -0.00673319 -0.05847716 -0.09261011 -0.02394042 -0.07856748
-0.09656539 -0.030993491 -0.26700065 -0.022629168 -0.05903831 -0.22185484 -0.013423064 -0.018236658
-0.032532964 -0.087182894 -0.11899595 0.15248445 -0.16745576 -0.23192683 -0.08669836 -0.043140434
-0.013855923 -0.043650534 0.042896196 -0.01037783 0.87835574 -0.023528328 -0.1393392 0.100239694
-0.12216276 0.79955906 -0.021331998 0.0040980596 0.036353838 0.11490945 -0.026103256 -0.06609449
0.2454983 0.026992207 0.0151867615 -0.004011952 -0.0074593956 -0.016494634 -0.011933526 0.08040813
0.11481931 -0.14642835 -0.034644272 0.022114314 -0.011942593 0.0018614349 -0.12954895 0.12149337
0.017907266 0.0019465375 -0.115547515 0.08659495 -0.11092384 -0.045640383 -0.04911735 -0.0070825303
-0.24477428 -0.2769526 -0.012452819 -0.00018691516 -0.10715398 -0.02474233 -0.029032854 0.06848003
-0.046014577 0.0032939855 -0.060835484 -0.009005619 -0.023637693 0.25121883 -0.009104496 -0.0054863486
-0.09095629 -0.25924644 -0.2964531 0.00939949 -0.10326285 -0.05291472 -0.013298078 -0.01285586
0.009194829 0.0012553795 -0.1143404 0.2697443 -0.284967 0.04145587 -0.27535355 -0.005458395
-0.05997964 -0.0105257 -0.008295293 -0.0048891986 -0.07157776 -0.045519266 0.006717881 0.030397275
0.03260193 -0.011315258 -0.04669936 -0.0139164515 0.0048084995 -0.037072398 -0.002547389 -0.0025692822
-0.041628264 -0.5986987 0.62656206 -0.012615057 -0.05360303 -0.03545162 -0.014031237 0.0052835485
-0.01168288 -0.0069408654 -0.26868117 -0.05001548 -0.013209711 -0.013831642 -0.0075063277 -0.00080747
0.10807268 0.5885905 -0.0043092268 0.1794431 -0.07874127 -0.028069286 0.002701809 0.014120255
0.009880729 0.0037656238 -0.037627727 0.006388117 0.0028905536 -0.006156756 -0.003000594 0.0028191237
-0.019645283 0.013482938 0.0137815615 0.00049926876 -0.033094414 -0.00732427 -0.0015957515 -0.00062815734
0.0015272907 -0.0017430091 -0.2644123 -0.033370696 0.024154285 -0.03492704 0.010605303 -0.0027931822
-0.02670464 0.0047608092 -0.0055051707 -0.0063501345 -0.32723835 -0.039598454 -0.050000295 0.0324172
-0.010606767 0.22279039 -0.16508256 -0.004522233 -0.01723674 -0.018177006 -0.13731058 0.11722033
-0.018199487 0.034944434 -0.00033084914 -0.0129984105 -0.10887496 -0.0064693606 -0.056922738 -0.114984676
-0.15561377 -0.16839713 -0.014439742 -0.21706046 -0.011634302 -0.025739243 0.025808195 0.0038703003
0.010685405 0.032204814 -0.13958319 -0.17624442 -0.021666192 -0.0204049 0.07085247 0.0010808484
-0.0072414596 -0.005488909 -0.111382544 0.0016215489 -0.012470515 0.0008970768 -0.011369045 -0.0064688944
-0.029165706 -0.008805059 -0.009884157 -0.17744014 -0.026533308 0.012220025 -0.0222038 0.14743836
0.19231871 -0.0055055427 -0.044949424 -0.27983373 0.008387935 -0.012674377 0.012895021 -0.09737604

model.8.bias f4 [32]
00000000: 6bac 28bc 4bd4 8c3d 47ad 993c 5842 88bc
00000010: a33e 993d 4f01 07bc bb63 193c f4ca 5b3d
00000020: b498 10bb d3ae 713d d5ac b8bc 8c91 44bd
00000030: 6531 41bb 9525 07bd 8da5 8cbd e27c 98bd
00000040: 0745 8abc ae87 023c c090 753d 54b2 76bc
00000050: 4775 aebc fe04 213d 1513 bebb 9af8 633d
00000060: b295 073d 4b3c 3b3d 1e86 1b3d 946b e73c
00000070: a20f 8c3d a1b4 a5ba 479a 503c a8c4 e53c
-0.010295014 0.06876429 0.018759383 -0.016633198 0.0748265 -0.008240058 0.0093621565 0.053660348
-0.0022063674 0.059004616 -0.02254335 -0.047990367 -0.0029478904 -0.032994825 -0.06867514 -0.074456945
-0.016878618 0.007966919 0.059952497 -0.015057165 -0.021296157 0.0393114 -0.0058006146 0.055657007
0.033101745 0.045711797 0.0379697 0.02824954 0.06838919 -0.0012642333 0.012732095 0.028047875

model.9.weight f4 [32]
00000000: 6962 2c3e ac9a 773e c58c 583e 3e0c 883e
00000010: 2d4c f23d eb51 213e 0cbf 733e 0ef2 613e
00000020: f9b9 2a3e 14ca 9b3e b50d 203e ae82 983e
00000030: 3d81 9b3e bc31 9d3e 6785 213e 90eb 173e
00000040: 0838 1d3e 1fd2 0d3e c934 2c3e 9413 3a3e
00000050: 6af9 0c3e ae2e 933e 9e03 9e3e 5b93 263e
00000060: ba26 893e f0fc 8a3e 3ce2 653e 5392 383e
00000070: a326 243e 8374 8c3e faf6 243e f314 493e
0.16834415 0.24180096 0.2114745 0.2657184 0.118309356 0.15753905 0.23803347 0.22064993
0.16672505 0.3042761 0.15630229 0.297872 0.30372038 0.30702007 0.15773545 0.14835954
0.15353405 0.13849686 0.16817011 0.18171531 0.13767019 0.2874655 0.30862135 0.16267149
0.2678736 0.271461 0.22449583 0.18024568 0.16030364 0.2743264 0.16109839 0.19636898

model.9.bias f4 [32]
00000000: 8032 7dbc 9da1 02be 3374 a8bc 3b8e 9abe
00000010: 30f0 2dbd 2997 0b3e 4ac3 36be baad 0cbe
00000020: 1911 213e 5b61 dcbd d985 153e d9ff b0be
00000030: d869 d6be 9352 b8be 1180 333d 949d be3d
00000040: 3bce ea3d 50b2 10bc 72ae 473c fe18 6cbe
00000050: 9953 683d bd28 cdbe 747f c9be bb9c 273e
00000060: 0994 a7be fea4 92be 8e96 64bd b879 a2bd
00000070: f421 6ebd dc68 94be 7921 223e 0ee4 c43d
-0.015453935 -0.12756963 -0.02056322 -0.30186638 -0.04246539 0.13631882 -0.17847934 -0.13738146
0.15729178 -0.107607566 0.1460184 -0.34570196 -0.41877627 -0.360005 0.043823306 0.093073994
0.114651166 -0.0088315755 0.012187587 -0.23056409 0.05672035 -0.40070143 -0.39355052 0.16368382
-0.3273013 -0.28641504 -0.055807643 -0.07933372 -0.05813785 -0.2898625 0.15833081 0.096138105

model.9.running_mean f4 [32]
00000000: 5613 2abc 9cbb 913d c5e6 143d 273f febc
00000010: 3633 913d 3b4c 8d3c e0b8 3cbc b319 153d
00000020: 0db3 b43c e768 9b3d 0fed 89ba d341 d1bd
00000030: f510 35bd 57f7 abbd 19c7 6cbd 5849 61bd
00000040: 57de 233b b986 0b3c a81b 803d fcaf 3bbd
00000050: 2e29 83bc 805f 81bc 2f7b 88bd ea5f 9d3d
00000060: 7794 93bc 3c60 e8bd 2345 0f3d 76e9 0e3d
00000070: 2a26 883d 80da 85bd 6786 153d 3521 3e3d
-0.010380587 0.07115862 0.03635289 -0.031035973 0.07089846 0.017248264 -0.011518687 0.03640146
0.022058034 0.07588368 -0.001052292 -0.10217633 -0.044205625 -0.08396786 -0.05780706 -0.055001587
0.002500435 0.008516007 0.06255275 -0.04582213 -0.016010847 -0.015792608 -0.066641204 0.0768431
-0.01801513 -0.1134648 0.034978043 0.034890614 0.06647904 -0.06535816 0.03650513 0.046418387

model.9.running_var f4 [32]
00000000: ee98 fb39 64d0 ae39 bd0b fb39 fde9 a739
00000010: cdb2 4c38 d225 423a 4613 5a3a f6f4 7c3a
00000020: b8b3 113a 62eb 2a3a e1a5 e739 c3cc ec3a
00000030: 4690 b63a e726 d63a d65a cd39 3d52 193a
00000040: 259b 033a 583c 4139 abb4 7339 f62c f03a
00000050: 0cf5 5139 8f2f ee3a e685 0f3b 9df1 e539
00000060: f0f7 f03a 7f31 b43c 6e24 403a 3a5a 1639
00000070: 8c56 c639 c0c6 673b 30dc f539 2ef2 233a
0.00047988392 0.0003334313 0.00047883196 0.00032027057 4.880391e-05 0.00074061484 0.0008318912 0.0009649539
0.0005558091 0.000652006 0.00044183343 0.0018066395 0.0013928495 0.0016338498 0.00039168325 0.0005848741
0.0005020372 0.00018428394 0.0002324159 0.0018323946 0.0002002308 0.0018172133 0.0021899878 0.000438583
0.0018384438 0.021996258 0.0007329647 0.00014338727 0.00037829985 0.0035366267 0.00046894094 0.0006254044

model.12.weight f4 [32, 32]
00000000: 357d 183c 8164 603d 5bb8 643d f662 1e3e
00000010: 049a 053a 45ba 78ba 3c39 803e a05f 2f3c
00000020: b7f7 aa3e e053 c93d 1e4e 423b 9e02 11be
00000030: 4f43 d5bd 08ff ffbd 5771 1bba 5d61 20bb
00000040: 97a2 153c 6e92 923e 8b50 e43a 2961 08bd
00000050: a3aa 6c3c 32fd a33c 4b48 49bd 56a3 ca39
00000060: 4dbe 1dbe b11c f6bd 1bed c23b 5e9e 913d
00000070: dc04 903c fd35 3abe b602 d7ba 5501 04bc
00000080: 01b9 2fbc 36fd 23bd faa0 33bd a198 d33d
00000090: b1af 8bbb 60a1 ad3e 2c59 8abc 585b 41bc
000000a0: 4c24 31bc ea1f e4bc 33db 55bc f093 4ebe
000000b0: fea7 bcbe 3cc4 9abe 9a80 cabc 7241 24bc
000000c0: 6aaa 58bc 9d9a 45bc f56a 983e ec4e 543c
000000d0: 424a e3bb ed15 dcbe e54b d2be c143 22bb
000000e0: 9b53 80be 229a 3ebd 8969 38bc 08f2 07bd
000000f0: dcf0 15bc 2d04 37be 6b1e 38bc 07d4 10bd
00000100: 7d4e 3b3e 054e 65bd 7814 76bc a3ea 4b3d
00000110: 81ca f33d 403f b5bc a53a 363e f848 fcbb
00000120: 5acf 69bc 8f1f c23c 4f3d efbb e588 213c
00000130: d29c 61bd 6c26 52bd 0c9b 64bd 67d4 27bd
00000140: d4f6 0fbd 6a28 c4bb 289c 67bc b13a 8abd
00000150: 34ea d2bc 6d4a a3bd 3e41 0abd dd01 55bc
00000160: 5e3e 1fbe e547 a0bd 9485 f6bb 75ee f4bd
00000170: 85d3 9abd ba34 3abe 5d50 8f3e a586 31be
00000180: f277 1bbc 9d3b 9abc d3a2 49bd eba6 0a3e
00000190: 7003 ec3d d8db 8ebb 28f9 8fbc f5de 243e
000001a0: 3d2f 1abb d635 b1bd f337 26bc c146 c0be
000001b0: b474 6cbe c7d0 b9be 054f 49bc 4499 3cbc
000001c0: 9a0f c0bb ee67 a2bb 9aec 74bb 7e0a 5c3c
000001d0: 6c12 dfbb 94fd d1be 8da4 c6be d910 593e
000001e0: d039 7ebe 61bc c03e 298c 013e a107 cdbc
000001f0: 1b36 5eba c915 99bc bf1c a5bb 7125 49bc
00000200: f0c3 19be a16d 77bc 3823 7fbb 90e6 45bc
00000210: 66e8 dcbd c3f3 b6bb 8758 18be 3b67 463e
00000220: ad36 10bb c10c 77bc 5c4a 943e 3bb0 4d3d
00000230: e5eb debd db1c ca3c 69c2 42bb f089 8fbb
00000240: c444 c2bb 229a 87bb 8373 d3ba 84f7 ddbd
00000250: 1d51 b0bb cd7d 9cbe 71a0 c0bd 41db b1bb
00000260: 7016 073d eb1f 49be 8f1b 1b3e 5081 21bc
00000270: be0a 3bbc 0b55 33bc d34c 6cbe e3ce 04bc
00000280: f6be f0bb d9a9 b8bc 2cca 9bbc 8253 90bd
00000290: 2ce9 6c3d b33d 2c3a 3556 85bc 2835 4dbc
000002a0: 0526 72bb 6caa 85bc 31a1 b6ba 423a 35bd
000002b0: 59eb 663e 1671 2d3f dbf0 15bc 94b9 0c3e
000002c0: bf9e 82bc 164c aebb 4554 8fbb 7baa 943b
000002d0: 5813 23bc ef85 043e 727f 50bf a3bc a03a
000002e0: e7aa 07be 8213 ca3e 358f 4cbc 7d95 e6bc
000002f0: 97ac 06bb 0a48 e6bd 50ca 61bb 59e8 dcbb
00000300: aa4f b4bb 2471 ea3b 1e10 cdbc 1523 7f3c
00000310: 102d 8bbb d79e 87bb 6a4b 1ebe f937 573d
00000320: 4568 67be d875 76bc 747f 2fbc 139b a93b
00000330: 6c34 ecbc 52db 823c 8ee1 32bc fd0b 733b
00000340: 5e78 6f3e bea7 44be cbd8 333c 7de9 67bd
00000350: 6b76 5b3e 12fc 8abe 1981 3abc 5c4e d6bb
00000360: 55e7 9f3c 3ef1 71be 5310 a93d aa7b 9cbc
00000370: 5b8d 99bc 3899 8cbc 53e2 07bb 5cac b6bb
00000380: deed 653a e8db 773e 0270 393e f56d 1abb
00000390: 1e10 1cbb d03c 6c3d 6ef6 be3c 33a0 5e3b
000003a0: 5307 a53b c517 0c3e 4aca a43c ff3a 7cbd
000003b0: 97ac 13be 9c5e c43c 59f3 043e 6992 763d
000003c0: 9979 b13c 7b2e 9c3b 9d39 2c3d 49e0 fe3b
000003d0: ef68 88bb 7dc6 dabc 1206 633c 0a22 5d3c
000003e0: d971 0539 62fc 99bb aac0 64bb 165e 7e3e
000003f0: f722 173e f761 5bbe e9e7 4fbc 7e4f 9d3e
0.009307195 0.054783348 0.055839878 0.15467438 0.00050964975 -0.00094882055 0.25043666 0.010703951
0.33392116 0.09830451 0.0029648612 -0.14161155 -0.10413229 -0.12499815 -0.000592967 -0.0024472096
0.009133003 0.28627342 0.0017419023 -0.033295784 0.01444498 0.020018194 -0.04914121 0.00038650137
-0.15404625 -0.12017191 0.0059486753 0.07110284 0.017580442 -0.18184657 -0.0016404006 -0.008056958
-0.010725261 -0.040036403 -0.04385469 0.10331846 -0.0042628874 0.33912182 -0.016888224 -0.011801563
-0.0108118765 -0.027847249 -0.013052749 -0.20173621 -0.36846918 -0.3022784 -0.024719525 -0.010025369
-0.013224224 -0.012060788 0.29769102 0.01295827 -0.0069363425 -0.42985478 -0.41073528 -0.0024759623
-0.25063786 -0.04653371 -0.01125563 -0.033189803 -0.009151664 -0.17872687 -0.011237721 -0.035358455
0.1829166 -0.05598261 -0.015019529 0.049784314 0.11903859 -0.022124887 0.17795809 -0.0076991282
-0.014270628 0.023696689 -0.0073010097 0.009859298 -0.055081196 -0.051306173 -0.055811927 -0.040974047
-0.035147503 -0.005986263 -0.014136352 -0.06749476 -0.025746442 -0.0797318 -0.033753626 -0.0130009325
-0.15551135 -0.07826213 -0.007523248 -0.119595446 -0.075598754 -0.18184176 0.27991 -0.17336519
-0.009489046 -0.018827254 -0.049227547 0.13540237 0.11524093 -0.0043597035 -0.017574862 0.16100676
-0.0023526691 -0.086528465 -0.010145175 -0.3755398 -0.23091394 -0.36292097 -0.012286906 -0.011511151
-0.005861235 -0.004956237 -0.003737247 0.013430236 -0.006807616 -0.41013777 -0.38797417 0.21197833
-0.24826741 0.37643722 0.12651123 -0.025028052 -0.000847669 -0.018687146 -0.005038827 -0.012276993
-0.1501615 -0.015101821 -0.0038930904 -0.012078896 -0.10786514 -0.005583258 -0.1487752 0.19375317
-0.0022005246 -0.015078724 0.28962982 0.050216895 -0.10884837 0.024671962 -0.0029717928 -0.004380457
-0.0059286077 -0.004138247 -0.0016132448 -0.108382255 -0.005380763 -0.30564728 -0.09405602 -0.0054277484
0.032980382 -0.19641082 0.15147232 -0.009857491 -0.011416135 -0.010945569 -0.23076181 -0.008105966
-0.007346983 -0.022541927 -0.019017301 -0.07047178 0.057839558 0.0006570473 -0.016276458 -0.0125248805
-0.003694893 -0.016316615 -0.0013933537 -0.044245012 0.22550716 0.6775068 -0.009151663 0.13742667
-0.015944837 -0.0053191287 -0.0043740594 0.0045369244 -0.009953342 0.12941717 -0.81444466 0.0012263249
-0.13248788 0.39468008 -0.012485315 -0.028147453 -0.002054965 -0.11244209 -0.0034452863 -0.006741565
-0.0055026608 0.0071546007 -0.0250321 0.015572329 -0.004247315 -0.004138808 -0.15458456 0.052543614
-0.2259837 -0.015042745 -0.01071154 0.005175957 -0.02883359 0.01597372 -0.010918034 0.0037086003
0.2338576 -0.19204614 0.01097698 -0.056619156 0.21431892 -0.2714544 -0.011383318 -0.006540103
0.019519487 -0.23627183 0.08255067 -0.019101936 -0.018744161 -0.017162904 -0.0020734265 -0.005574746
0.0008771102 0.24204981 0.18109134 -0.0023564075 -0.0023813318 0.057675183 0.023310866 0.0033969998
0.0050362735 0.13680942 0.02011599 -0.0615797 -0.14421307 0.023970895 0.12983455 0.06019822
0.021664428 0.004766283 0.04204713 0.0077782017 -0.0041628997 -0.026705975 0.013856428 0.013496885
0.0001272628 -0.004699276 -0.0034904876 0.24840578 0.14759432 -0.2142409 -0.012689569 0.3072471

model.12.bias f4 [32]
00000000: c1f4 543d fc95 f13c 4d86 84bd 7a43 6abd
00000010: 50a0 1d3b cada 8fbd 2239 7dbd 4534 3ebb
00000020: e664 87bc fdf2 383c 6d7e 463d cd7d 41bd
00000030: d3eb e93c cc41 213d 4995 54bd ca50 75bd
00000040: 67dd 673d 99fb 543d ae8b 57bd a381 18bb
00000050: 4e0a 4fbd bb2b 08bd 433f 92bd 7140 a13b
00000060: 1a0e 3cbd 55a3 4dbc e91a 4cbd 7da2 c53c
00000070: 1500 debc f74a 443d 46c0 2f3d 7534 c43c
0.051991228 0.029490463 -0.06470928 -0.057193257 0.0024051853 -0.070241526 -0.061822064 -0.0029022854
-0.016527604 0.011288402 0.048460413 -0.047239114 0.028554833 0.03936939 -0.051900182 -0.0598915
0.05660763 0.051997755 -0.052623443 -0.002327063 -0.050546937 -0.03324483 -0.071409725 0.004921012
-0.045911886 -0.012551148 -0.04983035 0.024125332 -0.027099648 0.047923055 0.042907976 0.023950795

model.13.weight f4 [32]
00000000: 6db2 923e 588d e23e 51d7 823e aee6 d03e
00000010: 9ba7 7d3e 5f26 893e 08f2 6f3e f784 8b3e
00000020: 3e7c 963e 02cf ae3e ca4b 513e efd9 963e
00000030: a9a9 463e f92c 943e 791f 913e 2ea1 a03e
00000040: 7828 993e c8fd 943e ee47 aa3e 3267 bf3e
00000050: 1f99 993e 5bad 883e 8f98 823e 4c43 b33e
00000060: 4a53 913e 37e0 943e e3e9 953e 6c76 b13e
00000070: 0acc b03e a326 b23e 90f6 983e 9bc1 a03e
0.28651753 0.44248462 0.25554898 0.40800995 0.24770968 0.26787087 0.23432171 0.27249882
0.29391664 0.3414231 0.20439067 0.29463145 0.19400658 0.2894056 0.28344324 0.3137297
0.29913688 0.2909987 0.33258003 0.3738342 0.29999635 0.2669476 0.25507018 0.3501228
0.28383857 0.29077312 0.29280004 0.3466066 0.3453067 0.34795102 0.29875612 0.3139771

model.13.bias f4 [32]
00000000: 65f5 673e f0d6 a83d 0d88 73bd a89d 72be
00000010: 883c 16bd 958d 20be b24d 05bd 3882 5a3e
00000020: 2f33 45be f5ee a7be 95a6 1bbe f3c8 6d3e
00000030: 20d7 de3d 244c ee3d bfca 25be 8543 21be
00000040: 8f80 f53b fd08 6d3e b9f6 b2be 8f4d 95bd
00000050: c4d4 66bd 1767 efbd 5b6f 16be 113d 913e
00000060: f560 9cbc 8121 10be 214d 57be 7b25 b3be
00000070: 8d0b a5be b399 093e 635a 07be f40c 5cbe
0.22652204 0.08244121 -0.05945592 -0.23692954 -0.03667882 -0.1567901 -0.0325448 0.21338737
-0.19257806 -0.32799497 -0.15200265 0.23221187 0.108808756 0.116356164 -0.16190623 -0.15748413
0.007492132 0.2314796 -0.3495386 -0.07290184 -0.056355253 -0.11689585 -0.14690916 0.28366902
-0.019089201 -0.1407528 -0.21025516 -0.34989533 -0.32235375 0.13437538 -0.13218074 -0.21489316

model.13.running_mean f4 [32]
00000000: 2c9a 093e a4c3 853d 34d6 82bd 2d7f 16bd
00000010: 7f68 61b8 61fc 82bd 61a6 85bd c1e7 e53d
00000020: c471 7bbc 2894 a4bd 4ba0 373d a7de 3c3d
00000030: fa8e 9b3d 3a1a 893d e95b 1abd 232f 96bd
00000040: c2c1 803d 50fc 073e 0f24 f9bd 3c0f 8639
00000050: e122 21bd 90ad 0fbd ca5a bdbd 52b8 053e
00000060: 5678 34bd 50d7 14bc 2eb7 9dbd 0903 a1bd
00000070: 0df0 b7bd 2c99 ba3d 1b75 063d 5b38 163d
0.13437718 0.06531456 -0.06388512 -0.036742378 -5.37415e-05 -0.06395794 -0.06525875 0.11225844
-0.015346948 -0.08036071 0.0448306 0.046110775 0.0759563 0.066944554 -0.03768531 -0.07333209
0.06286956 0.13279843 -0.12165081 0.00025569822 -0.039339904 -0.03507763 -0.09245832 0.13058594
-0.044060074 -0.009084538 -0.077009544 -0.07861907 -0.08981333 0.091112465 0.032826524 0.03667484

model.13.running_var f4 [32]
00000000: e00e 133c fdc9 573b 5821 e23a 77ab bc3a
00000010: c7bc fc3a 2fa5 a239 27ea d63a 5c3f a83c
00000020: 3166 1b39 7826 f63b 0b10 3939 135c 4b3c
00000030: 9c35 ca3b 384c 523b 6335 9039 a439 033b
00000040: 24bb 183b 4fd7 093c b5fd 773b 1db6 db3a
00000050: efd3 0d3b a9f2 d538 5f5a 3f3b b87d b03c
00000060: 8e65 ed3a 7920 db39 7b5f b53a 54d2 123c
00000070: cb41 713b f272 593c 6d68 f83a a92d f839
0.008975714 0.003292679 0.0017252369 0.0014394362 0.0019282334 0.0003102212 0.0016396687 0.020538025
0.00014820021 0.00751191 0.00017648951 0.012412089 0.0061709415 0.0032088887 0.00027505597 0.002002337
0.0023304904 0.00841315 0.003784043 0.0016762648 0.0021641215 0.000102018304 0.0029198152 0.021544322
0.0018111931 0.0004179513 0.001383766 0.008961279 0.0036812897 0.013272034 0.001895202 0.00047336266

model.16.weight f4 [32, 32]
00000000: 89b4 d73c d97a dc3c 3a07 8b3d ce8b 923e
00000010: 46a6 883c 272d ec3d ab61 863c c318 b73d
00000020: debf a9bd 75c4 47be d438 633d 44b8 133d
00000030: 7889 0e3e e211 563e b793 833d e488 9e3d
00000040: e50d af3d d62d 0a3d f588 44be 85d1 093e
00000050: a62c a33d 00f8 c73d 8ded 463e c2ec 323d
00000060: dad8 963c 15ba 32bc 6c1d 58be 9906 6dbe
00000070: 5b1a 0ebe cc23 7f3e 7b8a 083d 0c91 7c3d
00000080: 0387 8e3d 7d59 7cbe 30f6 1e3d f405 4b3e
00000090: f90c 923d 6f3c 1c3d 1056 643d aa9f 893d
000000a0: 4387 48bd 9959 3dbd 3aa6 5e3c 9bda 1c3d
000000b0: 958d 683d db50 b33d 842c 2139 d70c a33d
000000c0: c4c1 2d3d 92c6 d23d a453 a1bc d97e 913d
000000d0: f319 813d ae8a e53c 6d3a 203e 7c5a 653d
000000e0: d6aa f43c 3646 39bc 3896 d0bd 567c aabd
000000f0: 0b61 17bd 5a84 853d 878b df3c a4fd b9bb
00000100: 077b 49ba 5782 10bb 0f6e 22bd 62a6 04be
00000110: 7843 c1bc dfb5 68bd 7e48 29bc 5720 273c
00000120: c245 edbd 2a86 2bbe 40f7 903e c515 9dbb
00000130: b568 b53b 647e 053c de80 36bd 4d70 bcbc
00000140: 22dc 863b cadb 2dbc f2f2 03be 21ab 97bd
00000150: 71bb 193e 3936 9fbd 3451 f7bd 1d27 8f3c
00000160: 82e9 58bc ad10 903e 0bad 09bc 1bcc 5fbe
00000170: 9ebb eebd 5993 1dbc 07a0 56bd 0a89 9cbc
00000180: b530 04bc 4053 08bc 7b9f 8bbc 7651 74bd
00000190: 543d dcbb 76fb 243e 5849 03bc 09f4 d8bb
000001a0: 2d23 0fbd ff48 0fbe 90b9 21bd fadd 4eba
000001b0: d0a9 5f3d d1bb a0bc 05e9 4bbd 6f88 1a3d
000001c0: ef58 9e3c 41f6 7e3a 94f5 153f 8e04 5a3c
000001d0: 9324 f1bc 6b68 71bd e72e 0cbd 32d1 d1bb
000001e0: 02a0 7a39 335e 4cbd 8394 f5bb 0fa1 d2bd
000001f0: eaff 00be 9b20 b9bc d6ac 5bbc 90b4 52bd
00000200: c36d 573d f14f 9b3d 473d cabc 87d9 213e
00000210: c697 f2bd fc20 0e3c 7e60 a0ba 4e0d d03d
00000220: cf05 1ebd 206c 1b3a 4c85 123b 1cd0 e0bc
00000230: 2a47 7f3e ec56 293e 73bb 7ebb 226a 9d3d
00000240: 254a 0e3e 35ae 00be ad5c 20bc a0aa 003d
00000250: 0242 4c3e 86af 843b c661 b33c 1a53 8dbd
00000260: 3be7 3ebd a98b 17bc fd66 b4bd acf5 d3ba
00000270: d4db 173a dd45 6e3e 71a8 b43d 3bdc cbbb
00000280: cb65 86bd 5f68 d9bc bcd4 31be e520 093e
00000290: 30d1 6cbd d930 27bb 3599 31bd ef66 11be
000002a0: 7c0a 3f3e d5ad 13bd 2c2c dabc 1f67 8ebd
000002b0: 1165 20be de59 d0bc bd6c 243d cd92 edbd
000002c0: 182a f5bd 06c7 98bd 6cf3 973c 3335 873d
000002d0: ed27 ddbd c88b 3a3d c9b9 90be 5371 c2bd
000002e0: 03ad 3bbd 0d7c 823a 1359 1fbd 43fa 5cbc
000002f0: 5ba9 b23d 7fd0 acbd 9233 cdbd 7de8 f53d
00000300: 63b5 0e3c d90d 0439 a47a a43d 5cd9 09be
00000310: a58f c83c 3b13 583e d146 993c a07c cb3b
00000320: 5e51 ccbc c85a 9dbe f50c 463b 26d7 003c
00000330: 31da 18bc d0ce b83b 57f6 1d3e 0bb5 ce3d
00000340: 6bfc 8ebc f406 18bc e75e 00bf b100 903d
00000350: e9f1 8cbc 3d1e 383e 65f2 743d b98f 8c3e
00000360: 6b58 553c 5f2d 51bd db6e 39be 2c97 76be
00000370: cc93 d4bd e342 bebc 9534 d7bc b311 3f3e
00000380: 6790 71bc ac19 eabb 0c6a 0dbd 8912 02bd
00000390: 8246 9dbc 7a81 6b3d b478 1ebd 7a33 3bbc
000003a0: 5472 acbc 0234 7ebd b203 873a 00d5 61bc
000003b0: 78c7 18bb 521f 3a3b 2ed2 aa3d c3ae 8abd
000003c0: df39 20bd 09fe a6bc 24f0 64bd fc39 f13c
000003d0: b2eb 4ebc 4ff7 b73c 337f 41bd 6ca3 febb
000003e0: 7509 8fbc 4cdd 5cbc e6fa 34b7 e1b8 593f
000003f0: f782 02bd ed6f db3b c4d8 a3bd 2c0a 453d
0.026331203 0.026914047 0.06788488 0.28622288 0.016680848 0.115320496 0.016403994 0.0894027
-0.08288549 -0.19508536 0.055474117 0.0360644 0.13919628 0.20905259 0.06424659 0.077409536
0.08547572 0.03373512 -0.1919287 0.13458832 0.079675004 0.09764099 0.19426556 0.04368282
0.01841395 -0.010908623 -0.21104974 -0.23147048 -0.13877241 0.24915999 0.03333519 0.061661765
0.06959345 -0.24643512 0.038809 0.1982649 0.071313806 0.03814357 0.055746138 0.06719907
-0.04895712 -0.046228025 0.013589436 0.038294416 0.05677565 0.08755656 0.0001537074 0.079614334
0.042421117 0.102917805 -0.019693203 0.071042724 0.063037775 0.02802023 0.15647288 0.055994496
0.029866617 -0.0113082435 -0.10184902 -0.083244964 -0.03695778 0.06519385 0.027288212 -0.0056759883
-0.0007685874 -0.0022050345 -0.03965574 -0.12954095 -0.023591742 -0.05681407 -0.010332225 0.0102005815
-0.11585571 -0.16750398 0.28313637 -0.004793855 0.0055361637 0.00814781 -0.04455649 -0.023002768
0.0041155973 -0.010611484 -0.12885645 -0.07405687 0.1501291 -0.07774014 -0.12076035 0.017474705
-0.013239266 0.28137723 -0.008403073 -0.21855204 -0.11656879 -0.00961765 -0.052398708 -0.019108314
-0.008068253 -0.00832063 -0.01704382 -0.059648 -0.006721178 0.1611155 -0.008013092 -0.006620888
-0.034945656 -0.1399269 -0.039483607 -0.00078913535 0.054605305 -0.019620808 -0.04978277 0.03772777
0.019329516 0.0009726026 0.5857785 0.01330675 -0.029436385 -0.05893747 -0.034224417 -0.006403112
0.00023901465 -0.049894523 -0.0074945106 -0.10284626 -0.12597623 -0.022598555 -0.0134079065 -0.05144173
0.05259491 0.07583607 -0.024687422 0.15805636 -0.11845355 0.008674856 -0.0012235788 0.10158788
-0.03857976 0.00059288926 0.0022357283 -0.027442984 0.2492949 0.16537064 -0.0038869053 0.07686259
0.13895471 -0.12566455 -0.009787721 0.03141272 0.19947055 0.0040492443 0.021897208 -0.06900616
-0.046607237 -0.009249606 -0.08808706 -0.0016171238 0.000579295 0.23268838 0.0882119 -0.006221322
-0.06562384 -0.026539026 -0.17366308 0.13391455 -0.057816684 -0.0025511293 -0.043359 -0.14199422
0.18656343 -0.03605445 -0.02663239 -0.069532625 -0.15663554 -0.025433477 0.040142763 -0.11600266
-0.11970919 -0.07459836 0.01854869 0.06601944 -0.10798631 0.045543462 -0.28266743 -0.09494271
-0.045819294 0.0009955183 -0.038903307 -0.013487401 0.08723708 -0.08438205 -0.10019602 0.12007234
0.008710238 0.0001259366 0.08031204 -0.13461822 0.024482558 0.21101086 0.018710526 0.006209925
-0.024941143 -0.30733323 0.0030220125 0.007863795 -0.009329365 0.0056398883 0.15426002 0.10093125
-0.017454347 -0.0092790015 -0.5014481 0.07031382 -0.017205196 0.17980285 0.059801478 0.27453402
0.013021569 -0.05106866 -0.18108694 -0.24081105 -0.103797525 -0.023225253 -0.02627019 0.18659095
-0.014743901 -0.0071441736 -0.034524962 -0.031755958 -0.01919866 0.057496525 -0.03868933 -0.011425847
-0.02105061 -0.062061317 0.0010300784 -0.013783693 -0.0023312252 0.0028400016 0.0834087 -0.067716144
-0.03911769 -0.020384805 -0.05589308 0.029446594 -0.012629436 0.022456793 -0.047240447 -0.0077709462
-0.017460564 -0.013480496 -1.0787253e-05 0.8504773 -0.03186318 0.006696692 -0.08000329 0.048105404

model.16.bias f4 [32]
00000000: 02dc a2bc e600 09bd 864f b5ba d5fa cf3c
00000010: e3ce 873c 3dda 7bbc 728c 2abd 6fdb 1a3d
00000020: fc6f 913d 61f2 00bd 4839 1dbd e34c 92bd
00000030: dc93 92bd c7dc 153c adef a13c ad8b aabc
00000040: 5f31 7fbd 81f4 d53c d0e6 493d f883 fd3c
00000050: 7627 443d 86cc 77bd 7738 4c3d 0031 4abd
00000060: 907f 83bd 9919 1fbd e57b 8ebd 1f4c 0b3d
00000070: ea45 43bd bc03 2fbb d41d 6bbc 384f 40bd
-0.019880299 -0.033448122 -0.0013832904 0.02538816 0.016578143 -0.015371856 -0.041637845 0.037806924
0.071014374 -0.03148115 -0.038384706 -0.07143571 -0.07157108 0.009146876 0.019767607 -0.020818556
-0.062302943 0.026117565 0.049292386 0.030946717 0.047889195 -0.060497783 0.049858537 -0.049363136
-0.06420815 -0.03884277 -0.06957225 0.03400814 -0.047674097 -0.0026705107 -0.014350373 -0.04695055

model.17.weight f4 [32]
00000000: ba6f 923e e3ed 813e 9abb 773e 71b5 9e3e
00000010: 72d3 7a3e 94a8 c43e 1303 9b3e 88c2 a33e
00000020: 8827 be3e 4113 733e b537 953e 3e62 9e3e
00000030: 48ef c53e 97f1 b23e 9a12 b83e ff56 bf3e
00000040: 0495 7a3e ba95 af3e e882 cd3e 105c 853e
00000050: 524c 833e ac66 c93e 0c56 a43e 2ec3 c33e
00000060: 2a36 b03e ea31 be3e fa9d b93e 565e ad3e
00000070: d8ee 8d3e 93e2 a53e 0a39 a53e e471 733e
0.28600866 0.25376806 0.24192658 0.30997804 0.24494722 0.38409865 0.30275783 0.31984353
0.37139535 0.23737814 0.29144064 0.30934328 0.3865912 0.34949943 0.35951692 0.3737106
0.24470907 0.3429392 0.40138936 0.260468 0.25644165 0.39336145 0.320969 0.38234848
0.34416324 0.37147456 0.3625334 0.33861035 0.27721286 0.32399425 0.3227008 0.23773915

model.17.bias f4 [32]
00000000: dad9 4c3e 3ee7 0e3e 721e 9bbd da12 28be
00000010: 94a8 273e a705 94be f26b 1a3e d335 3fbe
00000020: f543 89be bfc9 083e 11b0 83bd 9ce0 c6bd
00000030: acb1 6dbe 94a5 32be e8d7 11be 4d8a 723e
00000040: 1428 9eb9 2064 a6be 3b38 8dbe 6803 9d3d
00000050: 835f 063e e3f0 ccbd 7d21 f23d 95f4 9fbe
00000060: e214 363d 80fd 10bd c552 7bbd e854 15be
00000070: 793a 08be efec 653e 8343 5f3e 811a 033e
0.20004979 0.139554 -0.07574166 -0.16413441 0.16372901 -0.28910562 0.1508024 -0.18672876
-0.2680966 0.1335821 -0.064300664 -0.097108096 -0.23212308 -0.17445976 -0.14242518 0.2368557
-0.0003016597 -0.32498264 -0.27581963 0.07666665 0.13122372 -0.10006883 0.11822794 -0.3124129
0.04445351 -0.035398006 -0.061358232 -0.1458317 -0.13303556 0.22453664 0.21803097 0.12803079
