weights/mlp.pt (torch, 64485 bytes, 61 tensors)

model.0.weight f4 [32, 20]
-0.1591584 -0.0041902754 -0.0012175189 0.0068015154 1.1119047 1.7296419 0.0070870104 0.40424556
0.16350526 -0.3535313 -0.4824707 0.25466052 0.6614563 0.2100315 -0.3984182 0.6845958
-1.3984743 -0.18377121 -0.8616211 -0.039410576 0.0014560771 0.00085113046 -0.00027781716 -0.00037157815
0.6382327 6.070936 -0.20781088 0.13124834 0.25376356 -0.3328104 -0.24107413 0.46515754
0.22210251 0.38615233 -1.0959997 0.17348991 -1.4388443 0.28671256 -1.2035998 -0.33022103
0.0075092297 9.554002e-05 9.6112584e-05 -0.00039297598 -0.17500919 -11.005205 0.021575086 -0.020514794
-0.05570355 0.038245402 0.0050097317 -0.1579741 -0.04578309 -0.10815622 0.07155094 -0.033862956
0.12703592 -0.025695983 0.13443132 0.042925246 -8.0313635e-05 7.767578e-05 8.112637e-05 -9.426463e-05
-0.04324553 -6.075762 0.006095383 0.022383982 0.016421637 0.040821828 0.03001313 -0.008581237
0.006710497 -0.005581874 0.055732604 -0.0057584792 0.047846247 -0.004335151 0.12167325 0.017977424
0.0011126524 0.00012372379 -0.0001147972 -0.00048505297 0.7530381 7.7882915 -0.24790475 0.16719104
0.27243447 -0.47695032 -0.6845487 0.44584078 0.20083901 0.31825146 -1.1954988 0.11562868
-1.3343238 0.23714378 -1.1050049 -0.5827612 0.001516246 -0.00010342387 -0.0007477878 -0.0002758147
0.65692556 6.932384 -0.20818476 0.18024078 0.2948879 -0.30587107 -0.21826832 0.5248746
0.30118132 0.4363292 -1.0989393 0.22128132 -1.3723369 0.3301302 -1.4144454 -0.29107484
-0.0005882802 -2.568307 -0.002844866 0.00033750906 -0.2083608 -5.887017 0.016771555 0.10641516
0.068978995 0.07388143 -0.17922278 0.46879768 -0.13192043 -0.20584512 -0.0044447775 -0.42461595
-0.071061656 -0.42719722 -0.11601932 -0.2150592 -0.00050038664 6.4056585e-05 0.00016490677 -3.0117304e-05
-0.14212772 -6.764407 0.008025586 -0.069261834 -0.08390587 0.024361556 0.08296899 -0.055760056
-0.01063666 -0.042681288 0.227925 0.02520371 0.29968175 0.012886766 0.65405065 0.12554109
-0.00042346457 2.9328578 -0.001413856 0.0007144531 -0.07137924 3.109503 0.025342496 0.03623679
-0.10691226 0.07050391 0.0140030775 -0.090218455 -0.12727913 -0.11737212 0.24016695 0.22949262
0.05058941 0.42617804 0.25093955 0.16125467 -0.0008910277 -2.4084473 -0.0031139408 -0.0014300084
-0.19077651 -5.996909 0.00683263 -0.008621442 -0.011113997 -0.016228447 -0.2100215 0.39994186
-0.15517798 -0.26762918 -0.041377578 -0.42189717 -0.07436432 -0.44561458 -0.06497792 -0.23313515
0.0016886374 3.717707e-05 -0.00054674316 -0.0001812182 0.6673317 5.203879 -0.19896622 0.17349824
0.28131983 -0.35400903 -0.26177773 0.49914825 0.27233863 0.40779284 -1.2803394 0.062147375
-1.6263506 0.16299467 -1.3872006 -0.5361389 0.052763905 0.00046008977 0.0016190857 -0.00021970332
-1.1599168 -4.284099 0.06095681 -0.09614714 -0.28726402 0.34368867 0.281062 -0.55535454
-0.2799218 -0.24481256 0.6133497 -0.072712034 0.78259397 -0.1773399 0.6808281 0.308171
-5.4233144e-05 -6.0589457e-05 4.5904195e-05 1.2963448e-05 -0.023685124 12.5893955 0.012726167 -0.046005666
-0.05649112 -0.034935687 0.08800915 0.061128866 0.083578266 0.06402666 0.09867094 -0.0057637966
00000000: 6bfa 22be 944e 89bb 2895 9fba 3fdf de3b
00000010: e552 8e3f e864 dd3f 273a e83b 46f9 ce3e
00000020: ec6d 273e 0e02 b5be 6606 f7be dd62 823e
00000030: 3355 293f 7f12 573e 78fd cbbe ac41 2f3f
00000040: 3501 b3bf 852e 3cbe 3393 5cbf fc6c 21bd
00000050: d7d9 be3a 661e 5f3a fda7 91b9 60d0 c2b9
00000060: 3863 233f 1c45 c240 60cc 54be f765 063e
00000070: 4ced 813e 2066 aabe 23dc 76be 2129 ee3e
00000080: d76e 633e c2b5 c53e b849 8cbf 57a7 313e
00000090: 0d2c b8bf fdcb 923e 8f0f 9abf bb12 a9be
000000a0: fc0f f63b a85c c838 0d90 c938 5808 ceb9
000000b0: 9c35 33be 5215 30c1 3cbe b03c a40e a8bc
000000c0: 6829 64bd 36a7 1c3d ad28 a43b f6c3 21be
000000d0: 0d87 3bbd 0281 ddbd 4d89 923d e2b3 0abd
000000e0: b415 023e 6280 d2bc 5da8 093e 62d2 2f3d
000000f0: 0e6e a8b8 dee5 a238 6322 aa38 f0af c5b8
00000100: 3a22 31bd a46c c2c0 c7bb c73b 9d5e b73c
00000110: ab86 863c ca34 273d 18de f53c 5198 0cbc
00000120: bbe3 db3b 27e8 b6bb df47 643d a0b1 bcbb
00000130: 6dfa 433d e20d 8ebb d32f f93d 6445 933c
00000140: 6bd6 913a dabb 0139 47bf f0b8 b54e feb9
00000150: 1bc7 403f af39 f940 beda 7dbe 2134 2b3e
00000160: 887c 8b3e d532 f4be 953e 2fbf 3e45 e43e
00000170: bea8 4d3e dbf1 a23e 1b06 99bf bbce ec3d
00000180: 1fcb aabf d2d5 723e cd70 8dbf d72f 15bf
00000190: c6bc c63a 44e5 d8b8 3107 44ba 399b 90b9
000001a0: 462c 283f 17d6 dd40 632e 55be 0a91 383e
000001b0: 8cfb 963e 229b 9cbe bb81 5fbe 2f5e 063f
000001c0: 7034 9a3e 8a66 df3e 0baa 8cbf 9297 623e
000001d0: bca8 afbf d306 a93e 8c0c b5bf c307 95be
000001e0: d136 1aba 245f 24c0 ee70 3abb b3f3 b039
000001f0: 895c 55be 7162 bcc0 8064 893c 31f0 d93d
00000200: dc44 8d3d 264f 973d 2d86 37be 4006 f03e
00000210: 2616 07be 10c9 52be 7fa5 91bb 4367 d9be
00000220: c688 91bd 98b9 dabe 8a9b edbd 7b38 5cbe
00000230: 612c 03ba 1e56 8638 d3ea 2c39 6ba4 fcb7
00000240: ee89 11be 0676 d8c0 bf7d 033c 26d9 8dbd
00000250: d7d6 abbd e391 c73c a5eb a93d a864 64bd
00000260: 6345 2ebc 93d2 2ebd 2c65 693e 0378 ce3c
00000270: e36f 993e 0423 533c dd6f 273f d88d 003e
00000280: 7404 deb9 f1b3 3b40 2351 b9ba 234a 3b3a
00000290: 472f 92bd 1902 4740 119b cf3c 076d 143d
000002a0: d1f4 dabd 5b64 903d 2a6d 653c 74c4 b8bd
000002b0: 7655 02be cb60 f0bd 53ee 753e 1d00 6b3e
000002c0: d736 4f3d 0234 da3e 267b 803e f21f 253e
000002d0: db93 69ba 0024 1ac0 4213 4cbb 1f6f bbba
000002e0: eb5a 43be aee6 bfc0 41e4 df3b f340 0dbc
000002f0: 7b17 36bc 85f1 84bc e00f 57be 2ec5 cc3e
00000300: fae6 1ebe b106 89be 897b 29bd e802 d8be
00000310: 524c 98bd 9827 e4be 2513 85bd fbba 6ebe
00000320: 4555 dd3a 93ee 1b38 5053 0fba 6405 3eb9
00000330: 40d6 2a3f 2d86 a640 cdbd 4bbe 86a9 313e
00000340: 2709 903e ac40 b5be bb07 86be 5c90 ff3e
00000350: f86f 8b3e 39ca d03e 29e2 a3bf 3f8e 7e3d
00000360: 422c d0bf 13e8 263e ca8f b1bf 6640 09bf
00000370: f71e 583d 3438 f139 8037 d43a 2960 66b9
00000380: 2778 94bf 5717 89c0 d9ad 793d cbe8 c4bd
00000390: 4514 93be f6f7 af3e 5ce7 8f3e b72b 0ebf
000003a0: e951 8fbe 25b0 7abe 7c04 1d3f 0cea 94bd
000003b0: 1458 483f 9798 35be c04a 2e3f 97c8 9d3e
000003c0: 6578 63b8 6f21 7eb8 4189 4038 967d 5937
000003d0: 4e07 c2bc 2a6e 4941 6a81 503c 7070 3cbd
000003e0: 3c63 67bd b918 0fbd 243e b43d 4362 7a3d
000003f0: 152b ab3d 6920 833d fd13 ca3d 3bde bcbb

model.0.bias f4 [32]
-0.03627561 0.102574706 0.10456644 -0.01151495 0.04687847 -0.0076994686 -0.06460379 -0.052068636
-0.060377423 0.07824778 -0.05546572 0.014457233 0.039533693 -0.05772419 -0.09496058 0.08444178
0.0054560173 -0.110269256 -0.0884766 -0.027681284 -0.11638705 0.001139331 0.069495276 0.113935366
-0.10947676 -0.043552987 0.04462077 -0.058397852 0.08974893 -0.08212427 -0.0069567775 -0.055865005
00000000: bc95 14bd b012 d23d ee26 d63d 33a9 3cbc
00000010: a303 403d d34b fcbb fe4e 84bd ec45 55bd
00000020: 514e 77bd 5f40 a03d 0630 63bd 08de 6c3c
00000030: 15ee 213d 3370 6cbd b17a c2bd d0ef ac3d
00000040: 64c8 b23b d9d4 e1bd 3833 b5bd dcc3 e2bc
00000050: 555c eebd 9b55 953a 8a53 8e3d f256 e93d
00000060: 5a35 e0bd 9e64 32bd 45c4 363d 9632 6fbd
00000070: 49ce b73d c530 a8bd aef5 e3bb b4d2 64bd

model.1.weight f4 [32]
0.33115348 0.4165711 0.3394617 0.3083091 0.3335798 0.38180074 0.47168255 0.296739
0.43910348 0.42370144 0.3507353 0.367163 0.27633607 0.4577173 0.4776016 0.39557534
0.34448805 0.18023033 0.42553276 0.21437226 0.27103212 0.1338028 0.28811702 0.39553615
0.428785 0.43651214 0.4035606 0.35903633 0.43600616 0.5475855 0.4561253 0.24773732
00000000: f38c a93e cf48 d53e edcd ad3e b1da 9d3e
00000010: f9ca aa3e 637b c33e 6080 f13e 2dee 973e
00000020: 2cd2 e03e 65ef d83e 9493 b33e cafc bb3e
00000030: ec7b 8d3e ec59 ea3e 3288 f43e da88 ca3e
00000040: bd60 b03e 4d8e 383e 6edf d93e 6784 5b3e
00000050: b9c4 8a3e 9a03 093e 1384 933e b783 ca3e
00000060: b589 db3e 857e df3e 7f9f ce3e 9cd3 b73e
00000070: 333c df3e 902e 0c3f 4189 e93e daae 7d3e

model.1.bias f4 [32]
-0.44570598 -0.36802024 -0.20703767 0.16272695 -0.41003978 -0.18889233 -0.40295714 0.29353943
-0.36864874 -0.3621154 -0.26838338 -0.28504878 -0.16107485 -0.39129877 -0.40158734 0.21714483
0.050709046 0.012949906 -0.36364952 0.33572546 0.22937904 -0.093040876 0.2283666 -0.33132768
-0.35969064 -0.37242934 -0.290043 0.18870187 -0.36672843 -0.2708326 -0.3828921 0.0015604673
00000000: 9333 e4be 266d bcbe af01 54be e5a1 263e
00000010: bcf0 d1be fe6c 41be 6650 cebe cd4a 963e
00000020: 87bf bcbe 3167 b9be 8c69 89be eaf1 91be
00000030: cef0 24be 5058 c8be db9c cdbe 375b 5e3e
00000040: 4ab4 4f3d d82b 543c 4530 babe 35e4 ab3e
00000050: 57e2 6a3e 378c bebd efd8 693e c8a3 a9be
00000060: 5f29 b8be 0faf bebe 8480 94be 103b 413e
00000070: d4c3 bbbe 92aa 8abe 6f0a c4be 9888 cc3a

model.1.running_mean f4 [32]
5.4275966 17.89901 -34.43468 -19.000774 22.807367 20.58102 -19.77011 -21.05261
11.018797 -20.085245 14.814651 -13.186938 39.663773 -19.546286 11.168984 -16.592356
10.309416 -26.431429 -19.754416 -27.746492 20.633385 -18.842402 -21.539736 9.902324
11.154483 -19.267546 -3.9101088 22.372705 10.985633 13.29962 11.124087 -20.720009
00000000: dfae ad40 2c31 8f41 1dbd 09c2 9601 98c1
00000010: 7d75 b641 eea5 a441 2f29 9ec1 bf6b a8c1
00000020: fe4c 3041 95ae a0c1 cf08 6d41 b3fd 52c1
00000030: b4a7 1e42 cb5e 9cc1 29b4 3241 25bd 84c1
00000040: 5ef3 2441 9173 d3c1 0b09 9ec1 d1f8 ddc1
00000050: 2c11 a541 3dbd 96c1 6151 acc1 eb6f 1e41
00000060: c378 3241 ef23 9ac1 393f 7ac0 4dfb b241
00000070: 27c5 2f41 3ecb 5441 43fc 3141 94c2 a5c1

model.1.running_var f4 [32]
273.9218 1.2403425 0.6811701 0.01376781 1.3649377 1.3422441 11742.537 0.10881056
15297.936 10332.227 1.5361506 30.388832 0.043848593 10648.048 18525.578 0.49560773
5.9200253 3.9058964 10588.553 0.34512872 0.7217873 0.54038846 0.7688773 13292.138
15694.132 10994.832 34.561764 0.060667906 17841.625 20.46978 17873.281 28.966856
00000000: fef5 8843 8bc3 9e3f 2a61 2e3f 6192 613c
00000010: 47b6 ae3f a8ce ab3f 267a 3746 12d8 de3d
00000020: be07 6f46 e870 2146 95a0 c43f 541c f341
00000030: 959a 333d 3160 2646 28bb 9046 4cc0 fd3e
00000040: d970 bd40 35fa 7940 3672 2546 b6b4 b03e
00000050: 0dc7 383f e656 0a3f 25d5 443f 8db0 4f46
00000060: 8738 7546 54cb 2b46 3f3f 0a42 e97e 783d
00000070: 4063 8b46 1cc2 a341 90a2 8b46 1fbc e741

model.4.weight f4 [32, 32]
0.0018321652 0.022271115 0.03933538 0.022831907 0.12648764 0.0010751591 -0.0030206381 -0.020109948
-0.00018038854 -0.000209714 0.020519149 0.017934706 -0.02458832 -0.0006468815 -0.0020225246 -0.0019725445
0.79135096 0.011700237 0.0012359836 -0.026800642 -0.025910327 0.12633753 -0.006323729 -0.0042405874
-0.0015368413 0.0034401522 -0.028513845 -0.022605017 -0.0013686494 -0.11982857 1.8082303e-05 0.001699007
-0.009085891 -0.002560293 0.0034316832 0.006540162 -0.008838991 -0.0011959919 -0.9328737 0.0063356715
-0.8097065 -0.9883517 -0.0017487037 0.0035876345 0.0032664135 -0.94464517 -0.7951954 -0.0007052109
0.0041559027 0.003849396 -0.97776705 -0.0023841555 0.008583523 0.005629245 0.0057506803 -0.8052222
-0.8380186 -0.96764475 0.0014882941 0.006223396 -0.83400166 0.0024337566 -0.8116202 9.131112e-05
-0.03498857 -0.0015090329 0.15766138 -0.11305698 -0.007374947 -0.001536838 -0.002616093 -0.027436774
-0.000751905 0.00054451724 -0.002916695 -0.066319205 0.09938743 -0.0026043227 0.0012039142 0.35920265
-0.066772535 8.484055e-05 0.00051524333 0.00024043332 -0.029756926 0.019410647 -0.07735692 -0.0010635875
0.0021199593 -0.0030100613 -0.07128617 -0.2263902 -0.0006793688 -0.012547406 -0.003383365 -0.0024372048
-0.1049183 0.025226424 0.0091529675 -0.005474084 -0.032475453 0.0105056595 -0.0017685108 -0.015312372
0.00077065866 -0.0018698542 0.01688522 -0.0061845714 0.24897946 0.00069355994 0.0009834901 -0.0096016675
0.044749577 0.0065678027 -0.0013027503 0.62236875 -0.01140362 0.10436609 -0.018054625 -0.00071941916
0.0010723105 -0.0009631958 0.11430151 -0.013839889 -0.0023980583 0.10886922 -0.0007478449 0.0074732425
0.022052798 0.275609 -0.021460807 -0.09123667 -0.114741586 -0.020618267 0.0050632614 -0.2325187
-0.00040751856 0.0008942096 -0.034579646 -0.05904718 -0.06826889 -0.0012444563 -0.0016917329 -0.1836848
-0.00525585 0.01784012 0.0018923518 0.0011174482 -0.4905035 -0.040901836 -0.020699944 9.388271e-05
0.0028168291 0.0003345115 -0.055998214 -0.35280967 0.00076752965 -0.088262714 0.006630058 0.01189737
-0.83428127 0.023127215 -0.46658805 -0.021195833 0.021902692 -0.006956768 -0.0015671585 -0.045320895
0.0036341094 0.0010633788 0.014629478 -0.6486551 -0.008597759 0.0016990358 0.000923038 -0.036203496
-0.0046246457 -0.7333338 0.001386358 0.0004528916 -0.07494071 -0.47219798 -0.022109203 0.0013984521
0.0010497005 -3.8350747e-05 -0.4831038 -0.0288076 3.2541735e-05 -0.08895987 -0.00068182824 -0.62755805
-0.028856486 0.0028619757 0.22632177 0.004087429 0.015140039 -0.0036999318 0.001315423 -0.2338983
0.0022612896 -0.00094337104 0.00409004 -0.12754555 -0.17731483 -0.002133593 -0.0029068612 -0.004790676
0.0074365665 0.015141918 -0.0008451072 -0.0115006445 -0.04613282 0.03343775 -0.026324494 -0.0006143535
-0.0011427604 -0.00032559223 -0.06753541 0.2810771 0.000900106 0.00024160762 5.651481e-05 0.0010428632
-0.056105413 -0.0034511199 -0.011545034 0.017364781 0.007870536 -0.024770008 0.0008080984 -0.14301045
-0.0008705218 0.0033245918 -0.0448982 0.06920107 0.12332941 0.0014922167 -0.00320778 -0.033793617
-0.04469923 0.02574847 -0.0008173259 -0.01654187 -0.00031788164 0.1494395 0.4558542 -0.00095242873
-0.0013258766 0.0025076927 -0.010896587 -0.06020561 0.004189344 -0.40782833 0.0011944479 0.00043701404
00000000: 4325 f03a ea71 b63c 231e 213d fb09 bb3c
00000010: fa85 013e 5aec 8c3a e6f5 45bb 9ebd a4bc
00000020: ae26 3db9 ace6 5bb9 c617 a83c ceeb 923c
00000030: 726d c9bc 7c93 29ba 558c 04bb ce45 01bb
00000040: fa95 4a3f 5ab2 3f3c ba00 a23a 058d dbbc
00000050: e541 d4bc a05e 013e 4937 cfbb a0f4 8abb
00000060: d66f c9ba 2d74 613b de95 e9bc 282e b9bc
00000070: 4164 b3ba ae68 f5bd 73af 9737 37b1 de3a
00000080: fddc 14bc 97ca 27bb 17e6 603b db4e d63b
00000090: 6ad1 10bc d4c2 9cba d0d0 6ebf 779b cf3b
000000a0: ed48 4fbf 9e04 7dbf c234 e5ba 851e 6b3b
000000b0: 5311 563b 44d4 71bf ed91 4bbf e7dd 38ba
000000c0: 3d2e 883b 2646 7c3b f14e 7abf 7e3f 1cbb
000000d0: e8a1 0c3c 8875 b83b 3470 bc3b 0b23 4ebf
000000e0: 6388 56bf 91b7 77bf dd12 c33a a1ed cb3b
000000f0: 2281 55bf a97f 1f3b 57c6 4fbf 497e bf38
00000100: 2d50 0fbd beca c5ba fc71 213e 6b8a e7bd
00000110: 8aa9 f1bb ba6f c9ba c272 2bbb 16c3 e0bc
00000120: 7e1b 45ba efbd 0e3a 0626 3fbb 5dd2 87bd
00000130: a38b cb3d 49ad 2abb a8cc 9d3a 69e9 b73e
00000140: 0ac0 88bd 6cec b138 6511 073a d41c 7c39
00000150: ccc4 f3bc 1403 9f3c 4e6d 9ebd 1368 8bba
00000160: 04ef 0a3b 7344 45bb 7cfe 91bd d5d2 67be
00000170: ab17 32ba a393 4dbc 72bb 5dbb 83b9 1fbb
00000180: 68df d6bd a5a7 ce3c 54f6 153c f25f b3bb
00000190: fb04 05bd ee1f 2c3c 60cd e7ba bee0 7abc
000001a0: 0706 4a3a e515 f5ba df52 8a3c f2a7 cabb
000001b0: 79f4 7e3e 05d0 353a 74e8 803a 5050 1dbc
000001c0: 554b 373d b936 d73b 0cc1 aaba 8f53 1f3f
000001d0: 40d6 3abc e3bd d53d 4be7 93bc 6797 3cba
000001e0: c58c 8c3a fa7e 7cba e916 ea3d b4c0 62bc
000001f0: be28 1dbb d3f6 de3d 060b 44ba 1ae2 f43b
00000200: 12a8 b43c 9f1c 8d3e 93ce afbc 4bda babd
00000210: a3fd eabd a4e7 a8bc b7e9 a53b 6219 6ebe
00000220: 37a8 d5b9 6469 6a3a 63a3 0dbd 75db 71bd
00000230: 8fd0 8bbd 061d a3ba 23bd ddba de17 3cbe
00000240: 4439 acbb 7125 923c ca08 f83a 5777 923a
00000250: 4623 fbbe af88 27bd ee92 a9bc e5e2 c438
00000260: 8d9a 383b 6061 af39 625e 65bd 78a3 b4be
00000270: 0b34 493a 15c3 b4bd f540 d93b 30ed 423c
00000280: 7593 55bf 4975 bd3c a1e4 eebe e2a2 adbc
00000290: 466d b33c 9af5 e3bb 1d69 cdba 67a2 39bd
000002a0: 3d2a 6e3b 1261 8b3a 7ab0 6f3c 430e 26bf
000002b0: 9ddd 0cbc 2eb2 de3a 08f8 713a 1e4a 14bd
000002c0: 578a 97bb c4bb 3bbf 75b6 b53a 1572 ed39
000002d0: 847a 99bd efc3 f1be 5c1e b5bc 444c b73a
000002e0: 1b96 893a cdda 20b8 6259 f7be eafd ebbc
000002f0: 6c7d 0838 9830 b6bd b8bc 32ba a5a7 20bf
00000300: 7064 ecbc fc8f 3b3b e5c0 673e d7ef 853b
00000310: ed0d 783c 8e7a 72bb 466a ac3a 0983 6fbe
00000320: 2532 143b 8f4c 77ba be05 863b 4d9b 02be
00000330: 0592 35be c0d3 0bbb 0a81 3ebb 1afb 9cbb
00000340: 71ae f33b cf15 783c 2f8a 5dba 336d 3cbc
00000350: c5f5 3cbd 06f6 083d 77a6 d7bc 910c 21ba
00000360: adc8 95ba 40b4 aab9 0150 8abd 56e9 8f3e
00000370: 17f5 6b3a 0d58 7d39 510a 6d38 afb0 883a
00000380: cace 65bd 2f2c 62bb 6227 3dbc 9640 8e3c
00000390: 6cf3 003c 79ea cabc 91d6 533a 5571 12be
000003a0: bb33 64ba 65e1 593b 2de7 37bd 4ab9 8d3d
000003b0: 2194 fc3d 7c96 c33a 9e39 52bb 2d6b 0abd
000003c0: 8a16 37bd 75ee d23c d041 56ba d182 87bc
000003d0: 5aa9 a6b9 ab06 193e b965 e93e 69ac 79ba
000003e0: 09c9 adba 1a58 243b 9987 32bc 289a 76bd
000003f0: c446 893b e0ce d0be 058f 9c3a 081f e539

model.4.bias f4 [32]
-0.070946224 0.017390562 0.05373301 -0.06481152 -0.047165386 0.0753529 0.020007275 0.05517646
0.04606067 -0.022419436 -0.049475882 -0.069053344 -0.07632347 -0.060877576 0.008078497 0.06209946
-0.06459326 -0.002769952 -0.05215507 0.030375702 0.0059379884 0.0027696374 0.058154866 -0.025771582
0.06374983 0.0046353755 -0.04276328 0.09047425 0.06032554 -0.030293439 0.0135846725 -0.035997387
00000000: 414c 91bd a776 8e3c 2517 5c3d e7bb 84bd
00000010: 7e30 41bd 9f52 9a3d 4ce6 a33c b600 623d
00000020: 1daa 3c3d f7a8 b7bc 39a7 4abd d76b 8dbd
00000030: 7b4f 9cbd c45a 79bd ac5b 043c 015c 7e3d
00000040: 7949 84bd 1588 35bb 8ea0 55bd 77d6 f83c
00000050: 7593 c23b ce82 353b cc33 6e3d ed1e d3bc
00000060: 458f 823d 59e4 973b 8d28 2fbd 904a b93d
00000070: ea17 773d f229 f8bc 3f92 5e3c ff71 13bd

model.5.weight f4 [32]
0.28004938 0.56285626 0.1395793 0.21114308 0.41711015 0.36893094 0.18771645 0.14378811
0.36749473 0.14414991 0.29639614 0.38228694 0.15724748 0.34209663 0.1802852 0.16631064
0.3751376 0.46892965 0.47765562 0.16702455 0.3717867 0.3853936 0.28307846 0.1456907
0.1602282 0.15966283 0.3567624 0.37139463 0.39305946 0.31380853 0.47377753 0.3665181
00000000: a262 8f3e 5917 103f e0ed 0e3e e435 583e
00000010: 768f d53e 84e4 bc3e be38 403e 313d 133e
00000020: 4528 bc3e 099c 133e 3cc1 973e 1dbb c33e
00000030: 7c05 213e 4a27 af3e af9c 383e 564d 2a3e
00000040: 0912 c03e 8c17 f03e 478f f43e 7c08 2b3e
00000050: d45a be3e 4f52 c53e a9ef 903e f12f 153e
00000060: dc12 243e a77e 233e 90a9 b63e 7027 be3e
00000070: 173f c93e 83ab a03e f892 f23e 43a8 bb3e

model.5.bias f4 [32]
-0.48882088 -0.38107842 -0.04188394 0.13365194 -0.43675163 -0.4458552 -0.09068847 -0.060688812
-0.36512867 0.14157873 -0.2796468 -0.3805063 0.09961853 -0.337655 -0.02073246 -0.022232553
-0.42817837 -0.32104704 -0.3249047 0.13763164 -0.36320096 -0.3804529 -0.37271634 -0.018067848
0.15444772 0.12220797 -0.4571676 -0.451347 -0.26840848 -0.19482386 -0.32322896 -0.27620873
00000000: bb46 fabe b61c c3be 7f8e 2bbd 0edc 083e
00000010: e99d dfbe 2247 e4be e0ba b9bd d594 78bd
00000020: 25f2 babe 04fa 103e de2d 8fbe b9d1 c2be
00000030: cd04 cc3d 1ee1 acbe 1fd7 a9bc 0b21 b6bc
00000040: 323a dbbe 4760 a4be e959 a6be 4fef 0c3e
00000050: 7af5 b9be b9ca c2be add4 bebe 0603 94bc
00000060: 8b27 1e3e 2c48 fa3d df11 eabe f416 e7be
00000070: d66c 89be e87f 47be 447e a5be 3b6b 8dbe

model.5.running_mean f4 [32]
0.031494148 -0.41173044 0.033534862 0.16677777 -0.41687956 -0.2241384 -0.0069620027 0.06646096
0.10242491 0.16455415 -0.13971446 -0.50816166 0.067133375 -0.47287238 0.062709674 0.07395625
-0.559744 -0.5847385 -0.51148915 0.2865652 -0.35765982 -0.41480917 -0.046401247 -0.032989044
0.35022172 0.21201688 -0.4717586 -0.20560981 -0.50647146 -0.14745963 -0.47832695 -0.24956279
00000000: 0200 013d 55ce d2be da5b 093d cbc7 2a3e
00000010: 3d71 d5be 8984 65be 8321 e4bb af1c 883d
00000020: 27c4 d13d e280 283e 4f11 0fbe e216 02bf
00000030: 397d 893d 541c f2be ee6d 803d 6076 973d
00000040: 624b 0fbf 6cb1 15bf f4f0 02bf adb8 923e
00000050: 301f b7be de61 d4be 3c0f 3ebd 851f 07bd
00000060: 4350 b33e f41a 593e 588a f1be 618b 52be
00000070: 1da8 01bf a8ff 16be 45e7 f4be 638d 7fbe

model.5.running_var f4 [32]
0.02767534 0.36089796 0.009736422 0.03179288 0.14592937 0.0565841 0.007405814 0.011880703
0.010966655 0.036882367 0.019489653 0.1641868 0.023206688 0.14898464 0.009065785 0.006976811
0.18259332 0.6450569 0.40822965 0.060090877 0.12963124 0.15244254 0.020469172 0.006711802
0.06362708 0.059353612 0.11835333 0.074268 0.6092886 0.026889961 0.4656202 0.08587632
00000000: 65b7 e23c 9ec7 b83e 8485 1f3c 4039 023d
00000010: 826e 153e bbc4 673d 78ac f23b 48a7 423c
00000020: 7cad 333c f711 173d c4a8 9f3c 9620 283e
00000030: f41b be3c 6e8f 183e a988 143c bc9d e43b
00000040: bef9 3a3e 7322 253f 7a03 d13e da21 763d
00000050: 0dbe 043e e619 1c3e f7ae a73c adee db3b
00000060: ea4e 823d c61c 733d 3b63 f23d d219 983d
00000070: 56fa 1b3f 5648 dc3c c565 ee3e eddf af3d

model.8.weight f4 [32, 32]
0.014954755 -0.029263318 -0.024709169 -0.010579217 -0.0026629567 0.025246833 -0.0383404 -0.014472597
-0.008804431 -0.004243512 0.0041659647 0.011746455 -0.025571559 -0.013018462 0.19127445 -0.008439865
-0.14449356 0.07740523 -0.0016909185 -0.0014960563 0.009198202 0.0046215896 -0.03103529 -0.11013476
-0.14281784 0.21388495 -0.6503273 -0.2782099 0.055755574 -0.030015822 0.017965486 -0.014763991
0.15098388 -0.020493217 0.17775427 -0.013526659 -0.28986856 -0.4001477 -0.019825026 -0.04317851
-0.067444324 -0.022838399 -0.49296045 -0.31541246 -0.06545082 -0.3179304 0.0039976886 -0.021410182
-0.0482631 -0.04842623 -0.05542781 0.17233951 -0.24274172 -0.3616421 -0.13396353 -0.03726947
-0.021918166 -0.051546685 -0.16916011 -0.14833511 0.7418267 -0.0045281667 -0.091476955 -0.053895283
-0.10530055 0.88184416 -0.016618459 0.00699567 -0.033775087 0.06293197 0.0008644336 -0.026139656
0.15411222 0.023738403 -0.0064527704 -0.06790328 -0.014182048 -0.08650891 -0.0021118547 0.055431522
0.006541468 -0.20151912 -0.12931688 0.0042744465 -0.092252135 0.054481577 -0.13060755 0.06901855
0.018185016 0.006315943 0.029976554 -0.019734664 -0.14017208 -0.035121195 -0.077784285 -0.0075839
-0.108165145 -0.29395765 -0.029115282 7.945519e-06 -0.18159066 -0.03529037 -0.024361543 0.051742658
-0.039748482 -0.00057605153 -0.018223137 -0.026146725 -0.02919856 0.26131478 -0.018427605 0.006944481
-0.098283276 -0.29342055 -0.30765122 -0.00030016145 -0.085068054 -0.061937626 -0.026462577 -0.013472618
0.01298261 -0.0003292454 0.0025936167 0.21657509 -0.2877343 0.01908932 -0.3210576 -0.10103269
-0.029334817 -0.009466499 -0.00886754 -0.0019378122 -0.08099482 -0.08722991 0.0055221235 0.014651953
0.01837646 -0.011721408 -0.022897141 -0.046029717 0.019786168 -0.041110247 -0.009462299 -0.0015486252
-0.1274443 -0.58130485 0.62457883 -0.008362299 -0.06577294 -0.046619635 -0.030127093 0.008809593
-0.012372385 -0.0085517755 -0.22752553 -0.11070092 -0.014670766 -0.007840636 -0.010882125 0.0035111841
0.12516402 0.6406256 -0.0016265542 0.15511899 -0.03913202 -0.030215895 0.0020362418 0.0035442682
0.009140891 0.0018796475 -0.013359008 -0.0008358787 0.0015202289 -0.012058143 -0.0012879996 0.0012959307
-0.1659412 0.008589472 0.018568678 0.0008209829 -0.018379599 -0.018148212 -0.012749953 -0.003299657
0.00030681587 -0.0008827949 -0.21861874 -0.07849964 0.02994564 -0.030018492 0.014201512 0.0024001515
-0.03840764 0.022642229 -0.0032004348 -0.006053711 -0.13502602 -0.13591194 -0.022074694 0.0047747195
-0.015952703 0.19943318 -0.025100118 0.046494387 -0.02022683 0.00030314884 -0.13897887 0.12689756
-0.055588484 0.05253139 0.0035402384 -0.010782756 -0.031749208 -0.050282963 -0.016896112 -0.098738894
-0.14691405 -0.16121724 -0.11640292 -0.13593215 -0.024045266 -0.025580714 0.019999804 -0.008298252
0.010482282 0.06713998 -0.12315168 -0.15044045 -0.025369693 -0.16889344 0.047808442 -0.050775804
-0.02105127 -0.0090374425 -0.044429876 0.0019164534 -0.021217505 -0.0015313057 -0.011745471 -0.010768947
0.055847287 -0.012652589 0.007453737 -0.1710712 0.0058924067 0.0029427793 -0.04270259 0.11873051
0.19369219 -0.007617117 -0.0868057 -0.07899296 0.020249804 -0.032102164 0.0039807293 -0.02479438
00000000: ca04 753c a0b9 efbc e26a cabc 7454 2dbc
00000010: 0085 2ebb 72d2 ce3c d30a 1dbd 791e 6dbc
00000020: 7640 10bc 290d 8bbb a582 883b 3474 403c
00000030: 727b d1bc 634b 55bc 73dd 433e 5c47 0abc
00000040: 1ff6 13be a286 9e3d cfa1 ddba 5217 c4ba
00000050: 0eb4 163c b470 973b b83d febc 558e e1bd
00000060: d73e 12be a804 5b3e da7b 26bf 8771 8ebe
00000070: f55f 643d bee3 f5bc 5b2c 933c abe4 71bc
00000080: 859b 1a3e 64e1 a7bc 3705 363e ec9e 5dbc
00000090: a769 94be 29e0 ccbe 1868 a2bc f3db 30bd
000000a0: 4020 8abd 9817 bbbc 5065 fcbe be7d a1be
000000b0: 140b 86bd c6c7 a2be 0bff 823b 6864 afbc
000000c0: 87af 45bd 955a 46bd 4508 63bd c579 303e
000000d0: 4991 78be 2729 b9be bc2d 09be dfa7 18bd
000000e0: ba8d b3bc 9e22 53bd 4f38 2dbe 29e5 17be
000000f0: 5be8 3d3f 0461 94bb 4558 bbbd 4dc1 5cbd
00000100: d1a7 d7bd 8ac0 613f 6f23 88bc ef3b e53b
00000110: bf57 0abd 7ae2 803d 289b 623a d522 d6bc
00000120: 98cf 1d3e 0a77 c23c c371 d3bb e010 8bbd
00000130: d25b 68bc 952b b1bd 0b67 0abb 2a0c 633d
00000140: d059 d63b 075b 4ebe a56b 04be a810 8c3b
00000150: b0ee bcbd 1328 5f3d fcbd 05be 9959 8d3d
00000160: bef8 943c f8f5 ce3b 6491 f53c 97aa a1bc
00000170: 4589 0fbe 3edb 0fbd 5e4d 9fbd 5d82 f8bb
00000180: b085 ddbd 9e81 96be 2c83 eebc bf4d 0537
00000190: e7f2 39be a38c 10bd dc91 c7bc 1cf0 533d
000001a0: 4ecf 22bd 2a02 17ba b048 95bc a831 d6bc
000001b0: d231 efbc 0dcb 853e 7df5 96bc 878e e33b
000001c0: be48 c9bd 383b 96be 7684 9dbe fd5e 9db9
000001d0: 2938 aebd 4fb2 7dbd 0cc8 d8bc 41bc 5cbc
000001e0: 03b5 543c 929e acb9 abf9 293b dcc5 5d3e
000001f0: e951 93be 3561 9c3c a961 a4be 3aea cebd
00000200: 924f f0bc 6019 1bbc 2949 11bc 30fe fdba
00000210: 9de0 a5bd 98a5 b2bd eef2 b43b bf0e 703c
00000220: 3b8a 963c 260b 40bc c992 bbbc a889 3cbd
00000230: 9a16 a23c 3863 28bd c207 1bbc 3dfb caba
00000240: c280 02be 65d0 14bf 66e4 1f3f 0602 09bc
00000250: f7b3 86bd 3bf4 3ebd 18cd f6bc 1c56 103c
00000260: 8bb5 4abc bf1c 0cbc 74fc 68be 2ab7 e2bd
00000270: a75d 70bc 0376 00bc f14a 32bc e51b 663b
00000280: ff2a 003e 0a00 243f 1a32 d5ba 83d7 1e3e
00000290: e648 20bd 5387 f7bc 7872 053b f446 683b
000002a0: adc3 153c 815e f63a bedf 5abc df1e 5bba
000002b0: 6b42 c73a 848f 45bc 18d2 a8ba 38dc a93a
000002c0: 7dec 29be dbba 0c3c 571d 983c 3b37 573a
000002d0: d090 96bc 8fab 94bc 2ee5 50bc 0f3f 58bb
000002e0: 21dc a039 5d6b 67ba 97dd 5fbe 6bc4 a0bd
000002f0: 8f50 f53c 57e9 f5bc 75ad 683c dc4b 1d3b
00000300: 5451 1dbd 327c b93c 63be 51bb 355e c6bb
00000310: 4344 0abe 802c 0bbe fdd5 b4bc 4075 9c3b
00000320: 3eaf 82bc 3638 4c3e c39e cdbc e670 3e3d
00000330: bdb2 a5bc f3ef 9e39 7a50 0ebe 6ff1 013e
00000340: c0b0 63bd 282b 573d 5803 683b 28aa 30bc
00000350: 750b 02bd 82f5 4dbd b769 8abc 9e37 cabd
00000360: a370 16be 2216 25be a764 eebd cc31 0bbe
00000370: 94fa c4bc a58e d1bc a1d6 a33c 64f5 07bc
00000380: e1bd 2b3c b080 893d f336 fcbd 100d 1abe
00000390: 1ad4 cfbc 67f2 2cbe c9d2 433d 4afa 4fbd
000003a0: b773 acbc c811 14bc 1afc 35bd 8131 fb3a
000003b0: 55d0 adbc 18b6 c8ba 1370 40bc 3d70 30bc
000003c0: 20c0 643d ce4c 4fbc 7a3e f43b 4a2d 2fbe
000003d0: 1715 c13b a5db 403b e9e8 2ebd fb28 f33d
000003e0: 3f57 463e 0299 f9bb 30c7 b1bd 10c7 a1bd
000003f0: ebe2 a53c 8f7d 03bd c770 823b 951d cbbc

model.8.bias f4 [32]
-0.015470747 0.0938963 0.026628608 -0.028578274 0.083434775 -0.0079367785 0.010816727 0.07304072
-0.0017641418 0.08137339 -0.028023833 -0.07954883 0.0051206807 -0.04816518 -0.091109455 -0.09711896
-0.024611702 0.009786793 0.08518738 -0.020850142 -0.023845844 0.057185594 -0.0067203646 0.07812389
0.04141659 0.062099237 0.049636446 0.04058048 0.093610376 -0.0031896494 0.015346463 0.03859483
00000000: 0479 7dbc b44c c03d 3d24 da3c fc1c eabc
00000010: dadf aa3d 4309 02bc a438 313c 5f96 953d
00000020: c73a e7ba 18a7 a63d 3d92 e5bc 7fea a2bd
00000030: 62cb a73b da48 45bd 9897 babd 4ee6 c6bd
00000040: 7b9e c9bc c958 203c b976 ae3d ebcd aabc
00000050: 5c58 c3bc 713b 6a3d 8136 dcbb 6bff 9f3d
00000060: 71a4 293d c55b 7e3d 964f 4b3d b837 263d
00000070: ccb6 bf3d 7009 51bb bb6f 7b3c 9d15 1e3d

model.9.weight f4 [32]
0.30222315 0.38544315 0.3284833 0.34128985 0.18966782 0.24119887 0.3139826 0.28295416
0.25919753 0.48382157 0.23133205 0.3772384 0.40227392 0.39710498 0.39596587 0.29509595
0.26280674 0.23090683 0.27525017 0.2532685 0.22919728 0.37001792 0.39778802 0.24252373
0.3499267 0.35140294 0.3175319 0.26196024 0.27882424 0.37301147 0.22662333 0.28184974
00000000: febc 9a3e ce58 c53e f72e a83e 8bbd ae3e
00000010: 4838 423e d6fc 763e 54c2 a03e 5edf 903e
00000020: 8ab5 843e 76b7 f73e 4fe2 6c3e 6425 c13e
00000030: d9f6 cd3e 5851 cb3e 0abc ca3e d116 973e
00000040: 9b8e 863e d772 6c3e 97ed 8c3e 69ac 813e
00000050: b1b2 6a3e fd72 bd3e dfaa cb3e 2458 783e
00000060: 9829 b33e 16eb b33e 8b93 a23e a71f 863e
00000070: 0dc2 8e3e 5cfb be3e f20f 683e 9c4e 903e

model.9.bias f4 [32]
-0.039172575 -0.19842216 -0.058157194 -0.43556812 -0.07416974 0.20067081 -0.23065856 -0.17045951
0.23996042 -0.1775317 0.19839308 -0.43473595 -0.5145405 -0.4593573 -0.12610257 0.09538558
0.15881483 -0.013728184 0.0062179198 -0.20345634 0.09218845 -0.50658363 -0.5031745 0.2412356
-0.4138882 -0.35822725 -0.08239869 -0.09398076 -0.07140497 -0.38267896 0.21033737 0.13470894
00000000: 6c73 20bd 2e2f 4bbe 3d36 6ebd c902 dfbe
00000010: 4ee6 97bd a67c 4d3e c231 6cbe f08c 2ebe
00000020: 2fb8 753e dfca 35be 8e27 4b3e b695 debe
00000030: edb8 03bf e130 ebbe 0821 01be 8459 c33d
00000040: 5ba0 223e 2dec 60bc b1bf cb3b dc56 50be
00000050: 4ccd bc3d 77af 01bf 0bd0 00bf 7706 773e
00000060: 27e9 d3be 9069 b7be a5c0 a8bd fc78 c0bd
00000070: c53c 92bd 7fee c3be ae62 573e 24f1 093e

model.9.running_mean f4 [32]
-0.014181445 0.092152864 0.046207864 -0.050307587 0.07906367 0.028302709 -0.015199752 0.049599085
0.031049468 0.10335041 -0.00014806312 -0.14324108 -0.051942367 -0.106415965 -0.07948728 -0.07388373
-0.0031283342 0.009834643 0.08995657 -0.05768752 -0.017014451 -0.0059313904 -0.06794736 0.110193916
-0.023793878 -0.12702855 0.04415318 0.04767114 0.09416601 -0.10234022 0.046645146 0.06523938
00000000: 4b59 68bc a4ba bc3d 7544 3d3d 540f 4ebd
00000010: 22ec a13d 15db e73c 6108 79bc 6928 4b3d
00000020: 745b fe3c 61a9 d33d 6441 1bb9 caad 12be
00000030: 85c1 54bd 9df0 d9bd 3aca a2bd 5a50 97bd
00000040: bd04 4dbb 7c21 213c 263b b83d c049 6cbd
00000050: e461 8bbc 1c5c c2bb fc27 8bbd 59ad e13d
00000060: 61eb c2bc c613 02be f7d9 343d d042 433d
00000070: 1cda c03d c097 d1bd fb0e 3f3d 399c 853d

model.9.running_var f4 [32]
0.0010042181 0.0013440123 0.0006519193 0.00055679574 8.070277e-05 0.0015816385 0.0017856535 0.0020902455
0.0010559699 0.0012155736 0.0008882227 0.0026008454 0.0021928265 0.002262616 0.0015460087 0.0014334056
0.0010209464 0.00032614617 0.00041890578 0.0029620389 0.00028497342 0.002516888 0.0023052422 0.000982012
0.002818274 0.032812882 0.0017604978 0.00028329485 0.0006687645 0.008829616 0.0009223078 0.0013837814
00000000: f89f 833a 9229 b03a 90e5 2a3a eef5 113a
00000010: f83e a938 fb4e cf3a 970c ea3a 80fc 083b
00000020: 7868 8a3a e253 9f3a 9ed7 683a f272 2a3b
00000030: 86b5 0f3b 6648 143b 72a3 ca3a 1ce1 bb3a
00000040: 47d1 853a 99fe aa39 95a0 db39 c41e 423b
00000050: 7c68 9539 60f2 243b 8c13 173b dbb6 803a
00000060: cbb2 383b cd66 063d 81c0 e63a 3187 9439
00000070: 0750 2f3a 18aa 103c 07c7 713a 0060 b53a

model.12.weight f4 [32, 32]
0.0008943059 0.06504039 0.039935432 0.27603927 -0.0014578317 0.00092708593 0.26898876 0.0105742505
0.31480354 0.07238234 -0.001837128 -0.056873176 -0.24297684 -0.21184132 0.035847437 -0.0078602955
0.0016658022 0.2564737 0.0034194705 0.045098502 0.0097204 0.044921394 -0.15781014 0.00243276
-0.14278154 -0.051003378 0.0065002358 0.06282586 0.009863581 -0.25825477 -0.008638271 -0.011654578
-0.012862517 -0.032282226 -0.0470624 0.048033375 -0.0045433086 0.36419082 -0.01657113 -0.017835848
-0.010937566 -0.026923852 -0.014471786 -0.2384804 -0.42295855 -0.30417344 -0.034622326 -0.009997698
-0.010185617 -0.006628796 0.29143727 0.034339778 -0.0033997647 -0.50542367 -0.42958534 -0.002323776
-0.34381506 0.1478461 -0.012770242 -0.024738668 -0.011372897 -0.26104808 -0.011499116 -0.03785452
0.13265488 0.026305255 0.020090485 0.091180086 0.07580767 -0.018021004 0.15676194 -0.0180825
-0.018322881 0.21596088 -0.0026961793 0.018751895 -0.22957005 -0.067437954 -0.050569937 -0.06341099
-0.057312466 -0.007956378 -0.009115128 0.005949202 -0.045881446 0.09664207 -0.10303084 -0.029998124
-0.07380977 -0.047772367 -0.029023182 -0.020270638 -0.048640855 -0.10303654 0.26287043 -0.11971644
0.0019016465 0.030759607 -0.035204366 0.006674882 0.068520494 0.00380758 0.00199554 0.062027555
-0.0012618959 -0.056377232 -0.011626743 -0.48311856 -0.38426343 -0.44596264 -0.019117933 0.003334206
-0.004415216 0.0030705323 0.004832303 0.008544915 -0.0030511825 -0.5475002 -0.52033764 0.14828514
-0.34400958 0.5391838 0.0472722 -0.020302318 0.01630876 -0.15615796 -0.004340662 -0.0021858974
-0.12241405 -0.01720806 -0.012922121 -0.030691272 -0.0897824 -0.007298123 -0.15189482 0.21903801
-0.0025797673 -0.01440013 0.29070428 0.06449222 -0.21041338 0.044932153 -0.010517973 -0.0071578566
-0.008689507 -0.0016807816 -0.0059371176 0.009720731 -0.009703868 -0.43854183 -0.15101796 -0.006059696
0.04340503 -0.1642138 0.15802076 -0.013064214 -0.007747579 -0.104425885 -0.23178051 -0.0069832667
-0.008600839 -0.031905007 -0.0041670166 -0.24657111 0.017197685 -0.001877875 -0.023285411 -0.027670369
-0.0046086754 -0.011677237 -0.0034250084 -0.041327275 0.49983448 0.64762336 -0.021991223 0.10026609
-0.0058981697 -0.00568377 -0.0050429543 -0.006401325 -0.0024323931 0.3492151 -1.0199527 -0.008183137
-0.1310139 0.26861978 -0.0237381 0.008161192 -0.009599197 -0.14648275 -0.0014597225 -0.0077819205
-0.01500253 -0.020208944 -0.026374554 0.03285846 -0.006354018 -0.0049541364 -0.1919399 0.122941196
-0.2221199 0.0028558034 -0.013118206 0.09435944 -0.3006178 0.05900286 -0.007902461 0.0110972375
0.22177821 -0.17208001 0.009961315 0.024043476 0.18749228 -0.61430186 -0.16433059 -0.0031600466
0.040496442 -0.23392676 0.12980886 -0.008857289 -0.026245188 -0.1422331 0.0004673586 0.006471429
0.026169932 -0.102479614 0.09756789 0.06464993 0.027136916 0.053886324 0.006941615 0.018361649
0.0034533255 -0.07934412 0.034482818 0.040883128 -0.23701058 -0.09015086 0.12637566 0.10851875
0.0024769376 -0.0066952514 0.03657138 0.016611528 -0.006564106 -0.071048774 -0.18402871 0.04105097
-0.09238755 0.022679439 -0.0022981898 0.009452423 0.19812512 -0.35848904 -0.020677844 0.38661715
00000000: da6f 6a3a e533 853d 5693 233d 0555 8d3e
00000010: b714 bfba af07 733a e5b8 893e 9f3f 2d3c
00000020: ee2d a13e 313d 943d c9cb f0ba d9f3 68bd
00000030: ecce 78be eeec 58be c3d4 123d 78c8 00bc
00000040: 0c57 da3a 8550 833e 3219 603b 35b9 383d
00000050: 5042 1f3c 7fff 373d fb98 21be f16e 1f3b
00000060: 5335 12be ebe8 50bd eeff d43b d8aa 803d
00000070: db9a 213c f839 84be 8987 0dbc d8f2 3ebc
00000080: 4ebd 52bc 5e3a 04bd 81c4 40bd a5be 443d
00000090: 09e0 94bb 3877 ba3e 2ec0 87bc 7c1c 92bc
000000a0: 7a33 33bc 698f dcbc 121b 6dbc 3534 74be
000000b0: 068e d8be 9fbc 9bbe 24d0 0dbd 62cd 23bc
000000c0: 93e1 26bc 5f36 d9bb 4437 953e dea7 0c3d
000000d0: 96ce 5ebb 7263 01bf 9cf2 dbbe 7e4a 18bb
000000e0: 8708 b0be f864 173e 473a 51bc bfa8 cabc
000000f0: 6355 3abc 18a8 85be ca66 3cbc 570d 1bbd
00000100: aed6 073e 1e7e d73c cd94 a43c a0bc ba3d
00000110: 0d41 9b3d c9a0 93bc 3486 203e c021 94bc
00000120: de19 96bc d924 5d3e 62b2 30bb 939d 993c
00000130: 6914 6bbe e91c 8abd 6c22 4fbd 9fdd 81bd
00000140: 7ac0 6abd 785b 02bc 9e57 15bc 86f1 c23b
00000150: 2fee 3bbd 47ec c53d d501 d3bd a0be f5bc
00000160: 9429 97bd f5ac 43bd 06c2 edbc 9c0e a6bc
00000170: a23b 47bd d204 d3bd f496 863e e52d f5bd
00000180: ab40 f93a 92fb fb3c 7432 10bd f8b8 da3b
00000190: 7954 8c3d 9888 793b 9bc7 023b 9b10 7e3d
000001a0: 3366 a5ba d0eb 66bd 187e 3ebc 515b f7be
000001b0: 2dbe c4be 3755 e4be 369d 9cbc b282 5a3b
000001c0: 84ad 90bb fc3a 493b 4c58 9e3b f9ff 0b3c
000001d0: 59f6 47bb f928 0cbf d934 05bf 0fd8 173e
000001e0: 0622 b0be f307 0a3f 7fa0 413d 0c51 a6bc
000001f0: f399 853c dfe7 1fbe 1d3c 8ebb 4641 0fbb
00000200: 38b4 fabd ebf7 8cbc 4eb7 53bc 436c fbbc
00000210: d6df b7bd 1825 efbb 518a 1bbe 804b 603e
00000220: 5011 29bb 86ee 6bbc 31d7 943e 7f14 843d
00000230: 9b76 57be c70a 383d 9453 2cbc 748c eabb
00000240: 6f5e 0ebc ac4d dcba 278c c2bb b343 1f3c
00000250: f9fc 1ebc 8e88 e0be 74a4 1abe 6a90 c6bb
00000260: 79c9 313d aa27 28be 32d0 213e 490b 56bc
00000270: 67df fdbb 3ddd d5bd df57 6dbe e3d3 e4bb
00000280: 89ea 0cbc d3ae 02bd 788b 88bb 237d 7cbe
00000290: 29e2 8c3c 0723 f6ba 0cc1 bebc f8ac e2bc
000002a0: 5f04 97bb e251 3fbc 1b76 60bb ca46 29bd
000002b0: 4eea ff3e a5ca 253f f026 b4bc 4f58 cd3d
000002c0: 6f45 c1bb eb3e babb 5e3f a5bb 35c2 d1bb
000002d0: c968 1fbb 52cc b23e cf8d 82bf 9012 06bc
000002e0: 8228 06be 8888 893e 6776 c2bc 85b6 053c
000002f0: f345 1dbc 93ff 15be 2954 bfba 7bff febb
00000300: 2ccd 75bc 3a8d a5bc 730f d8bc 9896 063d
00000310: 5e35 d0bb 4f56 a2bb e58b 44be 98c8 fb3d
00000320: 6673 63be 6e28 3b3b beed 56bc 863f c13d
00000330: 94ea 99be fcac 713d 5379 01bc 30d1 353c
00000340: d419 633e be35 30be c934 233c d3f6 c43c
00000350: fafd 3f3e e342 1dbf 4746 28be c918 4fbb
00000360: 99df 253d 7f8a 6fbe 9dec 043e 2a1e 11bc
00000370: 2600 d7bc 8ea5 11be cf07 f539 480e d43b
00000380: 5362 d63c d5e0 d1bd add1 c73d 2f67 843d
00000390: 3d4e de3c e8b7 5c3d 7d76 e33b 2b6b 963c
000003a0: 3051 623b 2c7f a2bd db3d 0d3d 1175 273d
000003b0: e7b2 72be 04a1 b8bd 9f68 013e 143f de3d
000003c0: 1e54 223b d763 dbbb dfcb 153d e614 883c
000003d0: b617 d7bb 0582 91bd 0672 3cbe 1025 283d
000003e0: af35 bdbd 3bca b93c 3a9d 16bb 56de 1a3c
000003f0: 50e1 4a3e e08b b7be 9564 a9bc aff2 c53e

model.12.bias f4 [32]
0.069421194 0.039433453 -0.08789691 -0.07736012 0.0033278724 -0.095603086 -0.08393945 -0.0043085827
-0.010674453 0.015465643 0.06640506 -0.06455226 0.038408775 0.053047117 -0.0705951 -0.08041938
0.07617132 0.069055505 -0.076512136 -0.0037566724 -0.06844691 -0.04051792 -0.096557744 0.0056938822
-0.060524944 -0.016828373 -0.06791834 0.03377102 -0.036970172 0.064365596 0.0583799 0.034003288
00000000: b32c 8e3d f984 213d 4c03 b4bd fc6e 9ebd
00000010: 6f18 5a3b 8dcb c3bd 72e8 abbd 032f 8dbb
00000020: e7e3 2ebc 9c63 7d3c 60ff 873d fa33 84bd
00000030: 8552 1d3d ef47 593d 2a94 90bd eab2 a4bd
00000040: b6ff 9b3d f96c 8d3d 65b2 9cbd 8132 76bb
00000050: e52d 8cbd 1ef6 25bd 11c0 c5bd bf93 ba3b
00000060: 01e9 77bd a8db 89bc c518 8bbd 7b53 0a3d
00000070: 096e 17bd 1cd2 833d c31f 6f3d 0847 0b3d

model.13.weight f4 [32]
0.3919008 0.55838895 0.38422415 0.5192222 0.38419092 0.37901053 0.36979395 0.3190167
0.4693945 0.42545024 0.3911854 0.41365948 0.36163846 0.45180246 0.42894772 0.44213828
0.4393036 0.40072688 0.4231522 0.4694145 0.4547946 0.40731114 0.30274242 0.47462866
0.40613177 0.44538382 0.40590075 0.4476563 0.41580477 0.47312278 0.3970735 0.4437236
00000000: 39a7 c83e 94f2 0e3f 07b9 c43e bfeb 043f
00000010: acb4 c43e ab0d c23e a255 bd3e 2856 a33e
00000020: 7a54 f03e 9dd4 d93e 7449 c83e 2dcb d33e
00000030: ad28 b93e a752 e73e 099f db3e f35f e23e
00000040: 67ec e03e 132c cd3e 68a7 d83e 1957 f03e
00000050: d6da e83e 168b d03e 0e01 9b3e 8702 f33e
00000060: 81f0 cf3e 5909 e43e 39d2 cf3e 3533 e53e
00000070: 5de4 d43e 263d f23e 384d cb3e bd2f e33e

model.13.bias f4 [32]
0.29189527 0.10848236 0.06617099 -0.26908848 -0.06427657 -0.237525 -0.059159417 0.26310778
-0.2834719 -0.40837878 -0.23855728 0.3104319 0.10451342 0.14696217 -0.26396814 -0.17659774
-0.046578683 0.3108996 -0.42201617 -0.217244 0.0034427545 -0.19368184 -0.15677552 0.36715597
-0.041887518 -0.14370093 -0.3049269 -0.4445503 -0.3932711 0.17872302 -0.18321267 -0.22211199
00000000: 4c73 953e 002c de3d a884 873d f7c5 89be
00000010: 6fa3 83bd c139 73be 2551 72bd 10b6 863e
00000020: 3b23 91be 0617 d1be 5c48 74be eef0 9e3e
00000030: 220b d63d 407d 163e d526 87be 0ad6 34be
00000040: 4ac9 3ebd 3b2e 9f3e 8112 d8be 3675 5ebe
00000050: d69f 613b 8854 46be c389 20be defb bb3e
00000060: 3f92 2bbd 5626 13be 611f 9cbe 199c e3be
00000070: d45a c9be 2b03 373e 1a9c 3bbe 5371 63be

model.13.running_mean f4 [32]
0.18413362 0.09946637 -0.06610195 -0.054530136 -0.0028342742 -0.09423121 -0.087087646 0.13096116
-0.013364101 -0.117378585 0.06005929 0.070229806 0.07060074 0.08101746 -0.055759694 -0.09529944
0.07838613 0.18611032 -0.1668056 -0.008033252 -0.027274922 -0.040090732 -0.122265115 0.17246862
-0.057437662 -0.007419237 -0.12715133 -0.093322314 -0.117249385 0.12472846 0.039670546 0.054715183
00000000: 868d 3c3e 06b5 cb3d 7660 87bd fe5a 5fbd
00000010: 3bbf 39bb 4bfc c0bd 025b b2bd af1a 063e
00000020: 1af5 5abc 2f64 f0bd bb00 763d a5d4 8f3d
00000030: 1f97 903d 7bec a53d 4764 64bd 5a2c c3bd
00000040: e888 a03d b493 3e3e 16cf 2abe e79d 03bc
00000050: a86f dfbc 2e36 24bd 2266 fabd 9d9b 303e
00000060: c143 6bbd 121d f3bb f533 02be c51f bfbd
00000070: 7220 f0bd a371 ff3d 957d 223d 071d 603d

model.13.running_var f4 [32]
0.01765908 0.008757135 0.005437988 0.0025384552 0.0038611782 0.0005081149 0.003889501 0.02502489
0.00035824996 0.015153525 0.00039535816 0.028613258 0.007682367 0.0050439457 0.0003722599 0.004014333
0.009384653 0.018651582 0.007182673 0.0027546568 0.006134172 0.00026176657 0.0064770197 0.04304082
0.004092494 0.0007866885 0.0063414164 0.0143150585 0.0056929644 0.027564593 0.004937635 0.0014262631
00000000: c6a9 903c 167a 0f3c 2631 b23b 365c 263b
00000010: d20b 7d3b 0433 053a 00e7 7e3b 0001 cd3c
00000020: 7fd3 bb39 7e46 783c 1348 cf39 5a66 ea3c
00000030: 5ebc fb3b af47 a53b e12b c339 aa8a 833b
00000040: 16c2 193c 34cb 983c a15c eb3b 7987 343b
00000050: 2a01 c93b b73d 8939 2e3d d43b 924b 303d
00000060: 541a 863b c639 4e3a a8cb cf3b b589 6a3c
00000070: 0c8c ba3b 24cf e13c e2cb a13b 73f1 ba3a

model.16.weight f4 [32, 32]
0.032805998 -0.02645547 0.07392159 0.18065056 0.012004372 0.07242043 0.018359615 0.06658829
-0.09649685 -0.22092043 0.037060075 0.038700033 0.08948999 0.2455126 0.05490723 0.09337848
0.087194115 0.024102958 -0.25069165 0.23302281 -0.02196938 0.08511513 0.12595001 0.018364266
0.021443045 0.0030546156 -0.24415798 -0.22887847 -0.06451216 0.27520695 0.09506044 0.15274812
0.05001825 -0.26057076 -0.054721348 0.04596145 0.05766909 0.028017914 0.02457537 0.05054433
-0.044753026 -0.11895671 0.01736844 -0.0003082821 0.09745395 0.12041364 -0.014308662 0.10442959
0.010366943 0.11975435 -0.14632858 0.11709994 0.034331825 0.028490243 0.19392979 0.001693468
0.01041439 -0.00053208467 -0.10956911 -0.16894959 -0.018611243 0.14928484 0.0444642 0.071107715
-0.023897186 -0.010634013 -0.08989845 -0.052739576 -0.02726039 -0.0024523742 -0.016201952 -0.030869024
-0.19408198 -0.086906455 0.30058506 -0.021079082 -0.035734132 0.054674488 0.02724122 -0.018378356
-0.009537329 -0.020427853 -0.07068079 -0.09226381 0.15292586 -0.08662408 -0.06630814 -0.021494558
-0.026819982 0.29100907 -0.063574776 -0.07023798 -0.008922482 0.10622939 -0.049145024 -0.012375577
-0.007938183 -0.008939828 -0.021611486 0.08678752 -0.009178324 0.101994686 -0.004118841 -0.002919636
-0.03173189 -0.10382005 -0.039734807 0.038698785 -0.001439888 -0.0104028 -0.068742804 0.020875525
-0.0013761005 -0.001588927 0.6120736 0.04875367 -0.013085008 -0.009752194 -0.03449445 -0.0052365316
0.006992296 -0.050662912 -0.029427586 -0.124721035 -0.095100895 -0.01805642 -0.0051291194 -0.053837135
0.069989905 0.119714916 -0.023849335 0.23651692 -0.10612568 0.019897768 0.011510483 0.12548177
-0.060158297 -0.013904298 0.0037861585 0.01751339 0.13186502 0.11507808 0.004308554 0.068443224
0.046588544 -0.15620302 -0.09045902 0.06633536 0.10456296 0.0071134306 0.050589904 -0.063494265
-0.018452156 0.0011690955 -0.08815295 -0.10425384 -0.009479138 0.29879057 0.10507772 0.0151248835
-0.07153129 -0.02470475 -0.067869164 0.19468284 -0.049351435 -0.022993846 -0.04693208 -0.119985744
0.22743024 0.021280792 -0.044961296 -0.08776123 -0.10124024 -0.016414618 -0.0056819576 -0.13339467
-0.1046478 -0.08124574 0.0073615834 0.11617312 -0.05082813 0.079146154 -0.1518022 -0.08052658
-0.05638683 -0.01184415 -0.029460292 -0.0992631 0.06870693 -0.092205614 -0.10706852 0.06373385
0.003929881 0.026121035 0.061682932 0.1383575 0.02452633 0.22709182 0.01636683 -0.004781571
-0.074603714 -0.2481903 -0.12997891 -0.0015448931 0.015378678 -0.007915638 0.12263547 0.101335526
-0.0060773273 -0.0073883953 -0.22935013 0.17030826 0.043308385 0.19208767 0.0749173 0.32811448
0.008609862 -0.09272919 -0.18885835 -0.20666164 -0.017199768 -0.0138717545 -0.06461637 0.05062173
-0.009571369 -0.006269319 -0.0090775145 0.022705743 -0.015852807 0.057243023 -0.026377508 -0.016932871
-0.021837335 -0.059223805 -0.009477751 -0.010299024 -0.012388286 0.0027472218 0.069230266 -0.03687942
-0.06200378 -0.015152607 -0.043944545 0.043069992 -0.012469305 0.0117257545 -0.030795043 -0.0018739732
-0.01938833 -0.01375916 -0.008314476 0.800461 -0.021921486 0.01345423 -0.06372883 0.021049745
00000000: 955f 063d 24b9 d8bc 3464 973d 76fc 383e
00000010: fcad 443c 2a51 943d e766 963c 715f 883d
00000020: 24a0 c5bd f738 62be 4ecc 173d ed83 1e3d
00000030: 8746 b73d a867 7b3e 67e6 603d 373d bf3d
00000040: d492 b23d 9173 c53c a85a 80be 889d 6e3e
00000050: 21f9 b3bc d750 ae3d 0af9 003e a870 963c
00000060: 53a9 af3c f22f 483b 8d04 7abe 1e5f 6abe
00000070: f41e 84bd ede7 8c3e 0caf c23d 016a 1c3e
00000080: f0df 4c3d 8869 85be 7e23 60bd 1342 3c3d
00000090: 6c36 6c3d d385 e53c 4952 c93c 9207 4f3d
000000a0: f34e 37bd 939f f3bd 4248 8e3c eca0 a1b9
000000b0: f095 c73d 6d9b f63d e16e 6abc 2edf d53d
000000c0: 1cda 293c c541 f53d 29d7 15be 18d2 ef3d
000000d0: 879f 0c3d 5f64 e93c 8895 463e 5bf7 dd3a
000000e0: 1ea1 2a3c 997b 0bba c565 e0bd 1f01 2dbe
000000f0: 9b76 98bc 20de 183e 1820 363d eca0 913d
00000100: 08c4 c3bc 493a 2ebc ae1c b8bd 7405 58bd
00000110: 2e51 dfbc 03b8 20bb f5b9 84bc 09e1 fcbc
00000120: 6dbd 46be 03fc b1bd 49e6 993e 0aae acbc
00000130: f45d 12bd 5bf2 5f3d fb28 df3c 358e 96bc
00000140: 7542 1cbc 5058 a7bc 17c1 90bd cff4 bcbd
00000150: 9998 1c3e f767 b1bd 90cc 87bd 5b15 b0bc
00000160: 94b5 dbbc 24ff 943e 7e33 82bd eed8 8fbd
00000170: 9a2f 12bc cb8e d93d 4b4c 49bd efc2 4abc
00000180: 270f 02bc 5b78 12bc 920a b1bc a8bd b13d
00000190: ae60 16bc 97e2 d03d 58f7 86bb 5d57 3fbb
000001a0: 4cf9 01bd 9b9f d4bd f7c0 22bd 9e82 1e3d
000001b0: a0ba bcba 8170 2abc 07c9 8cbd 2603 ab3c
000001c0: 455e b4ba 8b43 d0ba dbb0 1c3f eeb1 473d
000001d0: 8062 56bc abc7 1fbc 0d4a 0dbd 3697 abbb
000001e0: a11f e53b ea83 4fbd 1f12 f1bc be6d ffbd
000001f0: 42c4 c2bd 0feb 93bc 2c12 a8bb 5484 5cbd
00000200: de56 8f3d 182d f53d ae5f c3bc 7e31 723e
00000210: 6c58 d9bd a500 a33c 7796 3c3c 4b7e 003e
00000220: 8c68 76bd dace 63bc 3321 783b 3e78 8f3c
00000230: a007 073e 0eae eb3d c52e 8d3b f62b 8c3d
00000240: a1d3 3e3d aff3 1fbe 9442 b9bd d5da 873d
00000250: 1b25 d63d c817 e93b 5c37 4f3d 4809 82bd
00000260: fa28 97bc 563c 993a 8989 b4bd 0a83 d5bd
00000270: 634e 1bbc 14fb 983e fd32 d73d 5cce 773c
00000280: ff7e 92bd 9e61 cabc fdfe 8abd f05a 473e
00000290: bb24 4abd 975d bcbc da3b 40bd 16bb f5bd
000002a0: 79e3 683e 0e55 ae3c 5629 38bd 29bc b3bd
000002b0: 0b57 cfbd f377 86bc b72f babb 9d98 08be
000002c0: 9651 d6bd 2b64 a6bd 7039 f13b 2cec ed3d
000002d0: 2831 50bd 6117 a23d 0972 1bbe 1feb a4bd
000002e0: e0f5 66bd f70d 42bc b656 f1bc 744a cbbd
000002f0: 38b6 8c3d 4cd6 bcbd bd46 dbbd e586 823d
00000300: 3bc6 803b c8fb d53c 3ea7 7c3d 97ad 0d3e
00000310: 71eb c83c c28a 683e bb13 863c baae 9cbb
00000320: d5c9 98bd 9925 7ebe 3119 05be 037e caba
00000330: daf6 7b3c 98b0 01bc 4e28 fb3d 0089 cf3d
00000340: 5124 c7bb 5a1a f2bb c3da 6abe 4a65 2e3e
00000350: 2264 313d a1b2 443e 3e6e 993d 9ffe a73e
00000360: 6110 0d3c cde8 bdbd 1564 41be 1c9f 53be
00000370: 87e6 8cbc 5b46 63bc 9655 84bd bb58 4f3d
00000380: 3bd1 1cbc dc6e cdbb dbb9 14bc 6501 ba3c
00000390: bfdd 81bc a977 6a3d a515 d8bc ceb6 8abc
000003a0: 36e4 b2bc a994 72bd 9248 1bbc 3dbd 28bc
000003b0: 3df8 4abc bc0a 343b 99c8 8d3d e00e 17bd
000003c0: adf7 7dbd a442 78bc 32ff 33bd 296a 303d
000003d0: 0e4c 4cbc 611d 403c e345 fcbc 1ba0 f5ba
000003e0: 46d4 9ebc 1a6e 61bc 7139 08bc 03eb 4c3f
000003f0: b094 b3bc 216f 5c3c 4384 82bd 8470 ac3c

model.16.bias f4 [32]
-0.027288593 -0.04493027 -0.0017261284 0.03480892 0.022375295 -0.020538043 -0.055690043 0.051621586
0.09434379 -0.042668946 -0.051575284 -0.096337125 -0.09661447 0.011885101 0.026560381 -0.027780287
-0.08371039 0.035206266 0.06609779 0.04147985 0.06492281 -0.08046039 0.06673207 -0.06674589
-0.087510504 -0.052186903 -0.093447104 0.046008904 -0.06426839 -0.0037444942 -0.019270008 -0.06268302
00000000: 548c dfbc ce08 38bd 423f e2ba cc93 0e3d
00000010: 654c b73c 663f a8bc 3e1b 64bd 2871 533d
00000020: 5137 c13d a2c5 2ebd 9b40 53bd 664c c5bd
00000030: cfdd c5bd bab9 423c 2895 d93c 7c93 e3bc
00000040: 5a70 abbd 7234 103d 475e 873d c6e6 293d
00000050: 40f6 843d 6bc8 a4bd d3aa 883d 12b2 88bd
00000060: b538 b3bd efc1 55bd 3261 bfbd d573 3c3d
00000070: 259f 83bd 3066 75bb 23dc 9dbc f55f 80bd

model.17.weight f4 [32]
0.3807913 0.39567313 0.41086012 0.4705926 0.3716571 0.5090809 0.4181133 0.4757679
0.49395975 0.304804 0.43735224 0.4519354 0.5381641 0.4588815 0.46106336 0.507257
0.35858336 0.4656432 0.5076473 0.41574916 0.3725957 0.5227134 0.43536147 0.48317853
0.525605 0.51598394 0.485744 0.44211695 0.36738384 0.43489328 0.4253885 0.3547942
00000000: 14f7 c23e ab95 ca3e 425c d23e 83f1 f03e
00000010: d749 be3e 2053 023f f212 d63e da97 f33e
00000020: 4be8 fc3e 450f 9c3e a2ec df3e 1464 e73e
00000030: 1fc5 093f 84f2 ea3e 7f10 ec3e 98db 013f
00000040: 3d98 b73e c968 ee3e 2cf5 013f 13dd d43e
00000050: ddc4 be3e 8cd0 053f b3e7 de3e 2d63 f73e
00000060: 0d8e 063f 8617 043f 70b3 f83e 275d e23e
00000070: bc19 bc3e 55aa de3e 85cc d93e 96a7 b53e

model.17.bias f4 [32]
0.23697811 0.16769479 0.014208583 -0.1980922 0.23093465 -0.3437115 0.22661735 -0.22363447
-0.26836854 0.16484529 -0.08607898 -0.1908927 -0.2516935 -0.2601807 -0.2010434 0.32189846
0.10153032 -0.42183116 -0.27738965 0.079955064 0.17526978 -0.13444255 0.20778672 -0.3758915
0.042001065 -0.03401245 -0.11105594 -0.101053685 -0.15534063 0.27814093 0.25011855 0.14612451
00000000: 64aa 723e 2fb8 2b3e 1ecb 683c afd8 4abe
00000010: 227a 6c3e f4fa afbe 610e 683e 6f00 65be
00000020: 9a67 89be 34cd 283e 2d4a b0bd 6079 43be
00000030: f8dd 80be 6836 85be 52de 4dbe e0cf a43e
00000040: 21ef cf3d 41fa d7be 0406 8ebe 7bbf a33d
00000050: ec79 333e 4fab 09be 0bc6 543e da74 c0be
00000060: 4f09 2c3d a450 0bbd 4c71 e3bd 3cf5 cebd
00000070: 9d11 1fbe 7d68 8e3e 8a0f 803e aaa1 153e
