weights/mlp2.pt (torch, 125805 bytes, 43 tensors)

model.0.weight f4 [64, 20]
000000 b8 29 01 bb c4 a5 12 3f dc 08 39 bc 39 2a 2c bc
       -0.0019708704 0.5728419 -0.011293616 -0.010508114
000010 c3 3b 09 3f 4a 63 37 40 39 67 80 be 4f 40 ff 3e
       0.53606814 2.8654351 -0.25078753 0.4985375
000020 6d 82 2b be 0a be 08 bd eb 04 82 be d6 4f f3 37
       -0.16748972 -0.03338436 -0.25394377 2.9005034e-05
000030 cc 93 44 3f 3c f8 e8 3e cd 47 31 bf 42 24 23 bb
       0.7678802 0.45501888 -0.69250184 -0.0024893438
000040 0a 3e 03 bf 6c cc 3e 3e e1 d0 91 3d 44 a3 9b 3e
       -0.5126654 0.18632668 0.071199186 0.30398
000050 9a 23 b8 3b de 32 11 3e 27 00 14 3b 53 7b 26 3c
       0.0056194784 0.1417956 0.0022583099 0.010161239
000060 00 24 14 bf 05 4d 09 40 95 09 d7 be cb b7 d2 be
       -0.5786743 2.145326 -0.41999498 -0.41155848
000070 78 4d f8 be 13 0c 1d 3f 6a a7 23 3d 4d e9 ec bc
       -0.48496604 0.6134655 0.03995458 -0.02891984
000080 4f cb 8e bf 69 7a 15 be 51 90 da 3e 80 8a 11 3f
       -1.1155795 -0.14597477 0.4268823 0.5685196
000090 43 7d 8f bf e0 57 8d 3e 53 d9 51 bf 94 4d dc bd
       -1.1210102 0.27606106 -0.81972235 -0.10756984
0000a0 cc c3 33 3c ea 5f d0 3e 92 7a 54 bc f3 7a f1 bc
       0.010971975 0.40698177 -0.012968676 -0.029477572
0000b0 7e e4 e8 be 7c 3a cd bf 85 8c e6 3e fd b9 b5 3d
       -0.45486826 -1.6033473 0.45029083 0.08873365
0000c0 ef 3c 23 bd b3 f7 53 bd 24 5f b4 be 86 45 17 3f
       -0.039853033 -0.051749896 -0.35228837 0.5909046
0000d0 1d 2d b2 bf 62 e1 cf 3e a0 e1 06 be 22 b2 f1 3d
       -1.3920017 0.4060164 -0.13172007 0.11801554
0000e0 5d c8 37 3f 24 bf 85 bc 0a cd b8 bf 63 a0 ad 3d
       0.71790105 -0.016326495 -1.4437573 0.08477857
0000f0 41 1e f6 39 5f cf 4d 3a 09 7b dd 3d 88 77 fc 3a
       0.00046943317 0.000785103 0.10814483 0.0019261697
000100 f1 31 9e 3d 57 1a a0 c0 1f fe 4c 3d aa 81 f4 3e
       0.07724369 -5.0032153 0.050047036 0.47755176
000110 c6 97 f0 bd 15 70 ea 3c f8 3a 67 3d 9e fa 08 be
       -0.117476985 0.028617898 0.05645272 -0.13376853
000120 cc 9c a3 be ab 63 11 bd c2 30 95 3e 15 bc 0f 3e
       -0.31955564 -0.03549544 0.29138762 0.14036591
000130 c1 43 5d 3e 03 93 a4 3d 9b 58 7c 3f 22 f4 34 3e
       0.21607877 0.08035853 0.985727 0.17671254
000140 0b 4d 95 ba 68 30 3b 3a 80 b7 83 3a 53 14 78 b9
       -0.0011390758 0.0007140697 0.0010049194 -0.00023658694
000150 c2 a5 62 bf bf bd b0 3f a7 cf 23 bd 54 69 22 be
       -0.88534176 1.3807906 -0.039992955 -0.15860492
000160 5e 17 52 be ef fe bf 3e 35 4c b8 3e c6 e0 8e be
       -0.20516726 0.37499186 0.3599564 -0.27905864
000170 7e 8f dc bd 81 b9 94 be b5 a1 86 3f c7 68 4a 3d
       -0.107695565 -0.29047778 1.0518099 0.04941633
000180 1c dd b5 3f 48 3f a9 bc a7 f4 96 3f 58 42 15 3f
       1.4208102 -0.020660058 1.1793412 0.5830436
000190 fb 9c 74 38 0b 12 31 3a e3 73 c0 ba 66 01 69 ba
       5.8320333e-05 0.0006754703 -0.0014682974 -0.0008888453
0001a0 1d 3f 47 3f e8 e7 93 40 73 90 80 be 5f a0 11 3f
       0.7783068 4.622059 -0.25110206 0.5688533
0001b0 e2 14 1d 3f a3 fc 50 bf a0 6b 3e bf 4f 6b 37 3f
       0.6135999 -0.81635493 -0.7438297 0.71648115
0001c0 da ef c1 3e d6 94 16 3f d6 04 6f bf 3b 50 cd 3e
       0.37878305 0.58820856 -0.93366754 0.40100273
0001d0 e2 a3 9f bf 6f 05 e6 3e a2 66 86 bf 30 61 f9 be
       -1.2471888 0.4492602 -1.0500071 -0.4870696
0001e0 c5 8a b6 b7 08 41 47 b8 60 41 c3 38 be c6 fc b8
       -2.176071e-05 -4.7505862e-05 9.3105016e-05 -0.00012053315
0001f0 bc 19 0e bc 56 42 88 41 90 a2 2d 3a 9b 82 5e bd
       -0.008673128 17.03239 0.000662365 -0.054323774
000200 e9 29 5d bd 14 e3 51 bd 1c f5 75 3d 0f 20 6d 3d
       -0.053995047 -0.05124195 0.060048208 0.0578919
000210 f3 7d 72 3d fd e1 68 3d 6b 8c 86 3d 1d 4c de 3b
       0.059202146 0.056856144 0.06569751 0.0067839758
000220 ca 63 3b 3c f0 44 cd 3b e0 34 28 3d 26 c7 10 3c
       0.011437366 0.0062643215 0.04106605 0.008836543
000230 ba c3 84 bd 9b 69 bc 3a 24 fb 60 3c 44 03 8b 3b
       -0.064826444 0.0014374735 0.013731752 0.0042423327
000240 74 fc 53 3f 3f 03 cb bf cf 73 31 3e 33 a5 7d bf
       0.8280709 -1.5860366 0.17329334 -0.990802
000250 d6 a8 2d 3d 3a b9 91 3e 8b 4d ab be c4 97 ae 3e
       0.042397343 0.2846163 -0.33457598 0.34100163
000260 7e 9b 1b 3f a2 03 89 be d4 df 16 be de 8c a1 3e
       0.6078414 -0.26760584 -0.14733821 0.31552786
000270 19 2f a2 bd 9a 4e dd 3c 51 ee a6 3f 43 b2 99 be
       -0.079191394 0.02701502 1.3041478 -0.30018815
000280 78 e8 55 ba 14 7f 3b 37 4d 97 ea b7 ad a3 1b 38
       -0.0008159946 1.1175656e-05 -2.7965429e-05 3.7107315e-05
000290 d9 4e c9 be 6a 59 27 c0 ae 2d 67 3e 95 34 ca bc
       -0.39317968 -2.6148324 0.22576019 -0.024683276
0002a0 8e d9 e1 bd cc 01 5b 3e f9 4b 28 3e bb a1 7a be
       -0.110278234 0.21387404 0.16435231 -0.24475758
0002b0 4f 00 c4 bd 70 2d 45 be fe 51 08 3f 2a 94 26 3d
       -0.09570371 -0.19255614 0.5325011 0.040668644
0002c0 62 32 46 3f 1d de cc 39 8e 52 d0 3f b1 64 aa 3e
       0.7742063 0.000390754 1.6275194 0.33279946
0002d0 99 08 c9 b8 b7 98 42 b7 b4 7b a2 b8 f8 ef 1b 38
       -9.586028e-05 -1.1598858e-05 -7.7478035e-05 3.7178368e-05
0002e0 d1 e7 08 bc b6 ac 0a 41 23 7a 59 3b 48 d8 93 3b
       -0.008356051 8.667166 0.0033184371 0.0045118667
0002f0 50 6d 87 3b a5 f9 07 3c 6c b7 e3 3d b8 c0 d9 3d
       0.004132904 0.008299266 0.11118969 0.10632461
000300 2c 3f dd 3d 04 b2 d9 3d d0 dc f0 3d fe a0 84 3a
       0.10803065 0.10629657 0.11760867 0.001011878
000310 06 c6 41 3c c7 28 5e 3a 37 06 37 bf bd ae ab 3b
       0.011826998 0.0008474704 -0.7149386 0.0052393363
000320 0e d2 8e be b4 f5 66 3a f8 d1 71 3a 5d b9 12 3b
       -0.27894634 0.00088104163 0.0009224708 0.0022388317
000330 b9 06 15 3f ca e5 8c be b0 4f b4 3b e5 a9 3e 3f
       0.5821338 -0.27519065 0.0055026636 0.7447799
000340 80 f7 15 be 94 a9 01 3e 23 14 31 3d f6 09 e3 be
       -0.14645195 0.12662345 0.043232094 -0.44343537
000350 97 c2 72 3e f6 2a 90 bd 7c 37 02 3e 20 ed fd 3e
       0.23707043 -0.07039444 0.12716478 0.49594975
000360 40 a4 85 bf 0f a8 94 3d 42 e1 87 bf 08 18 9e 3e
       -1.044075 0.07258617 -1.0615618 0.3087771
000370 57 22 00 bb 25 9c 1f 40 fb 49 01 3b 35 c0 c1 38
       -0.0019551718 2.4939053 0.0019727934 9.2387585e-05
000380 e3 9d 81 3b 27 c8 33 40 cc 8b b3 3c 50 57 07 3e
       0.003955589 2.8090913 0.021917246 0.13216901
000390 e0 68 9a bc 15 2f 57 3d 81 de 6d 3e 4b fb 00 3d
       -0.018848836 0.052535135 0.2322941 0.03148965
0003a0 dd a3 50 3d ff ae c1 bd 8e 7f ba 3d 4f 5c 65 3d
       0.050937522 -0.09457206 0.091063604 0.055996235
0003b0 47 56 44 3e e4 76 bd 3e cd 5c 84 3c 07 16 a3 3d
       0.19173537 0.3700477 0.016157532 0.07963186
0003c0 a6 02 75 bd 39 0f dc 3b cb fb 08 bc 31 46 0b 3b
       -0.05981698 0.006715682 -0.008360813 0.0021251554
0003d0 17 58 80 3e 00 5d e7 bf 7f 5e 8c 3c c5 87 52 3e
       0.25067207 -1.8075256 0.017134903 0.20559604
0003e0 91 86 d6 bd 13 72 f9 3d b9 81 3b bd 39 23 81 bf
       -0.10474885 0.12179961 -0.04577801 -1.0088874
0003f0 2c b9 0a 3f 8d b5 c0 bd b6 4d 43 3f 82 0b 50 3e
       0.541888 -0.09409628 0.7629045 0.2031689

model.0.bias f4 [64]
000000 13 bc 86 3b f8 d1 1c 3e de 29 bd bc 6a 1e 24 be
       0.0041117757 0.15314472 -0.023091253 -0.16027227
000010 f9 8d 66 3c 8a 5f 13 bd 22 88 0d bd 84 ae 7f bd
       0.014071935 -0.035979785 -0.034553654 -0.06242229
000020 b8 32 11 be 8a 40 a7 3d 28 03 b7 3d a6 38 88 3d
       -0.14179504 0.08166607 0.08936149 0.0665143
000030 b1 f6 cb bb f7 22 af 3d 76 ac f5 3d 8d eb 1b 3e
       -0.0062244763 0.08551591 0.11995785 0.15226574
000040 39 50 fd bd 8e e2 86 bc 37 85 23 3c 8c 78 ea 3d
       -0.12368817 -0.016465452 0.009980491 0.11448774
000050 53 53 21 be f6 02 ab 3d 72 a6 7f bc 37 53 91 3d
       -0.15754442 0.08350174 -0.0156036485 0.0709595
000060 9f 9c c8 bd ca 68 34 3d 32 3a 21 be d9 6c 7b bd
       -0.09795498 0.044045247 -0.15744856 -0.061383102
000070 73 d3 13 3e be 1c 27 3e 7f 29 81 3d 2e 24 ce bc
       0.1443613 0.16319558 0.06306743 -0.025163736
000080 4f 6c 1c be 42 97 e2 3d 8c 3e 25 be bc ad 78 bd
       -0.15275691 0.110640064 -0.16137141 -0.06071256
000090 d8 ab a6 3d 95 d2 1a 3e 5c 38 bc 3d 9c 22 c8 bc
       0.08138245 0.15119393 0.09190437 -0.024430566
0000a0 d8 8d 38 bd ab 3e e0 bd ad 18 c4 bd 8a d4 bc 3d
       -0.045057148 -0.10949453 -0.09575019 0.09220226
0000b0 ea 4e 12 3d e9 03 99 3d 8e 38 e9 3d f0 87 29 bd
       0.03571979 0.07471449 0.1138774 -0.041389406
0000c0 93 7e 82 3d 86 bd a4 3b 7c 63 ec bd ef 9d dc bd
       0.06371798 0.0050274758 -0.11542413 -0.10772311
0000d0 2c b9 c8 bd bc 62 9d 3d c2 7b 59 3d 56 ec bb bd
       -0.09800944 0.07684848 0.05309654 -0.09175937
0000e0 19 b1 18 be 3f 4d 5c 3c 11 31 ac bd 7e 16 17 bd
       -0.14911307 0.013446151 -0.08407796 -0.036886685
0000f0 36 a7 bc bd 07 b0 45 3d 9d e7 27 be 96 d4 50 bc
       -0.092115805 0.048263576 -0.16396947 -0.012745997

model.1.weight f4 [64]
000000 49 b5 1b 3f c1 f4 b7 3e fa 82 b1 3e be 12 a1 3e
       0.60823494 0.3592892 0.3467024 0.31459612
000010 b1 68 92 3e 09 59 88 3e a9 d6 34 3f 1d 6c 58 3e
       0.28595498 0.26630428 0.70640045 0.21134992
000020 32 9b f9 3e b2 4d 5b 3f 87 ae cf 3e ad 30 12 3f
       0.48751217 0.8566543 0.4056284 0.57105523
000030 0b d7 03 3e 98 94 24 3f 3d f3 c9 3e 50 65 a1 3e
       0.12875001 0.64289236 0.3944339 0.31522608
000040 a3 9d 76 3f 76 32 0f 3f b2 5e 01 3f 78 72 d9 3e
       0.96334285 0.5593637 0.5053512 0.42470145
000050 8f 7f f2 3e e3 50 1c 3f 67 ac 2c 3f 50 9c c2 3e
       0.47362944 0.61060923 0.67450565 0.38009882
000060 bf c0 29 3f b0 5a e0 3e 2b 61 62 3f 14 b1 fc 3e
       0.6630973 0.4381919 0.88429517 0.4935385
000070 8c e7 0b 3f 7a a3 46 3f c4 96 53 3f 9f 8e b0 3e
       0.5465019 0.77593195 0.82651925 0.3448381
000080 ff 46 27 3f 57 60 ad 3e 47 b0 01 3f 5c 02 02 3f
       0.65342706 0.33862564 0.506596 0.5078485
000090 c8 46 cc 3e 4e 2c 0a 3f 74 1b 07 3f e2 81 16 3f
       0.39897752 0.53973854 0.52776265 0.58791935
0000a0 1b 7a 58 3f 3c a7 5b 3f 1f 41 ae 3e 54 f1 19 3f
       0.8456132 0.85802054 0.34034058 0.6013386
0000b0 6b 40 ee 3e 67 70 ed 3e b5 31 ce 3e 5c f1 12 3f
       0.46533522 0.4637482 0.40272298 0.57399535
0000c0 69 00 23 3f fe d1 3e 3e 51 31 08 3f d7 bf 62 3f
       0.636725 0.18634793 0.5320025 0.88573974
0000d0 ff 04 60 3f 49 a4 18 3e 82 df 04 3f ba 1f 65 3f
       0.87507623 0.1490642 0.51903546 0.89501536
0000e0 c3 ff e8 3e 84 a5 f5 3e ea 8e 13 3f e7 c9 c5 3e
       0.4550763 0.4797784 0.57639945 0.38630602
0000f0 a7 27 bf 3e 78 64 91 3e e8 ea 25 3e 29 53 08 3f
       0.3733494 0.28396964 0.16202891 0.5325189

model.1.bias f4 [64]
000000 0c c5 06 bf a2 d3 b4 be 9e 27 9b be fd 8c 7c be
       -0.5264442 -0.35317713 -0.30303663 -0.24663158
000010 ba 30 25 3e d6 91 d3 be 7b 3d d1 be 26 d4 ba bc
       0.16131869 -0.41322201 -0.40867218 -0.022806238
000020 0b 74 30 3e 4f 19 bb bd 3c 40 06 bf f8 aa f4 be
       0.17231767 -0.091356866 -0.52441764 -0.4778669
000030 4a 13 58 3c ff 5d 0c bf 88 25 04 3f d6 7f c7 bd
       0.013188193 -0.54830927 0.5161977 -0.0974118
000040 0e 59 20 bf 0f 62 ef be ed 1d 13 bf fe 02 b0 3c
       -0.62635887 -0.467545 -0.5746754 0.021485802
000050 4e 0b ec be fa 14 03 bf 2b 11 13 bf 75 97 98 be
       -0.46102375 -0.5120388 -0.5744807 -0.29803053
000060 16 27 11 bf 78 97 28 be b1 4f aa 3e fc 5a ee be
       -0.56700265 -0.1646403 0.33263925 -0.4655379
000070 92 54 eb be d0 80 38 be 0a 3b 0f be 29 52 c4 bd
       -0.4596296 -0.18017888 -0.13987365 -0.09585983
000080 1d 7e c4 be 21 96 e6 be a1 88 da be 1b d3 5f be
       -0.38377467 -0.45036414 -0.42682365 -0.21857874
000090 90 40 bb be 08 a8 ec be 21 22 e2 be 83 3e 5c 3d
       -0.36572695 -0.46221948 -0.44166663 0.053770553
0000a0 23 40 9c bd da 48 95 bd ac dd b4 bd 26 5f 01 bf
       -0.076294206 -0.07289286 -0.08831343 -0.5053581
0000b0 e8 29 c2 be ef ac 8b be fe e1 b2 be cd 05 fb be
       -0.37922597 -0.27280375 -0.34938043 -0.49027863
0000c0 58 b7 01 3e 9a 90 61 bb d9 be c6 bd b4 38 a0 3d
       0.12667596 -0.0034418465 -0.0970437 0.07823315
0000d0 d8 d5 80 be 39 1b 1b 3c 93 bc 57 bc f4 dd 30 3d
       -0.2516315 0.00946694 -0.013167518 0.04318042
0000e0 39 70 b6 be 55 d0 cd be a7 db fb be c7 8e 6d be
       -0.35632494 -0.40198007 -0.4919102 -0.23198996
0000f0 b6 1a 45 be ac b4 26 be bf 9b cf 3b ab 0b e4 be
       -0.1924847 -0.16279858 0.006335705 -0.44540152

model.1.running_mean f4 [64]
000000 e5 fe 06 41 02 f9 a3 40 62 ae 5b c0 33 ef 73 c1
       8.43723 5.1241465 -3.4325185 -15.245898
000010 42 5b 9d 40 05 c5 51 41 2a e5 55 42 88 a6 78 c0
       4.91739 13.1106 53.473793 -3.8851643
000020 a7 66 dd c0 4f 73 da 41 84 76 fd be cb 6a 20 41
       -6.918781 27.306303 -0.49504483 10.0260725
000030 c3 1f a3 c0 70 d0 4a c1 77 93 d7 41 7a 4b 26 c0
       -5.097627 -12.675888 26.947004 -2.5983567
000040 d1 66 94 c0 c2 fc 13 41 49 6b 85 c1 14 c6 8f 41
       -4.637551 9.249208 -16.677385 17.971718
000050 75 71 69 c1 eb 36 25 41 41 2a 3d c1 da 40 b7 c1
       -14.590199 10.325908 -11.822816 -22.906666
000060 34 b9 47 c1 2e b3 02 c1 65 13 82 c1 42 d2 ab c0
       -12.482716 -8.168745 -16.25947 -5.369416
000070 7d a6 31 41 13 3d c7 3f 6a 05 a6 41 c9 a1 a2 bf
       11.103147 1.5565513 20.752644 -1.2705623
000080 3b b4 1a 41 42 38 83 3e 19 20 36 c1 6e a4 ae 41
       9.669002 0.2562886 -11.382836 21.830288
000090 1d cb 11 c1 86 69 56 c1 9d 0c 0a 41 34 8b 01 41
       -9.112088 -13.400763 8.628079 8.096485
0000a0 af b3 d9 41 cb 04 8e 41 02 c2 20 c1 5f fb 22 41
       27.212736 17.75234 -10.047365 10.18637
0000b0 57 7b 17 c1 4e b3 09 c1 88 c3 bd c0 ab 67 53 c1
       -9.467612 -8.606276 -5.9301186 -13.21281
0000c0 4a 68 b6 c1 42 4e 07 40 4a c7 0c 41 69 f6 7e c1
       -22.800922 2.1141515 8.798655 -15.935159
0000d0 b8 73 9a 41 01 d3 3e c1 5c 1d 01 c2 43 0f 89 41
       19.306503 -11.926515 -32.27867 17.132452
0000e0 15 c4 49 c1 57 72 1b 41 09 cd 69 c1 49 3d e6 c0
       -12.610372 9.715415 -14.612557 -7.194981
0000f0 04 85 d5 c0 e9 63 79 c1 e0 60 e1 c0 d3 30 00 41
       -6.6724873 -15.586892 -7.0430756 8.01192

model.1.running_var f4 [64]
000000 d6 83 12 44 ea 75 16 42 37 0c 96 43 4e a1 a4 41
       586.05994 37.61515 300.09543 20.578762
000010 03 8c 87 3f 65 ba e9 3f 9f b2 a0 3d 87 d9 3a 42
       1.0589603 1.8260008 0.07846569 46.71243
000020 ba 7e 36 3f 86 7f bf 3d 2c 7d 51 44 92 e8 2c 46
       0.7128712 0.09350495 837.9558 11066.143
000030 43 fa 1c 42 3b 4a 00 46 e2 e8 9c 3e 5e 2d be 42
       39.244396 8210.558 0.30646425 95.08861
000040 56 30 46 3f 74 83 2d 46 d5 01 4f 42 72 e0 8d 3e
       0.77417505 11104.863 51.75179 0.277103
000050 2d 5b b0 42 54 9a c6 45 62 97 00 46 8d 44 99 40
       88.17808 6355.291 8229.846 4.789618
000060 9b d3 03 46 74 ac fa 3f 97 4f d9 3d 44 2b b2 42
       8436.901 1.9583879 0.10610884 89.0845
000070 80 44 e6 45 a8 46 d3 40 b0 69 7c 3e bb 8b 69 42
       7368.5625 6.602375 0.24649692 58.386456
000080 f3 c4 87 41 70 c2 dc 43 75 d5 0e 43 06 48 6e 3f
       16.971167 441.51904 142.83382 0.9307865
000090 8d da d9 42 70 a1 e8 45 78 61 03 46 1f 54 43 40
       108.92686 7444.1797 8408.367 3.0520093
0000a0 f3 04 b4 3d b8 bf 26 3e dc 52 53 41 33 cf 27 46
       0.087900065 0.16284072 13.207729 10739.8
0000b0 04 3c 81 40 28 c9 6a 3f a9 02 ed 43 58 12 f7 45
       4.038576 0.9171319 474.02078 7906.293
0000c0 e5 07 63 3e a8 79 ef 42 17 dd ea 40 1d 4f d4 3d
       0.2217098 119.73761 7.3394885 0.10366652
0000d0 82 b7 56 3e 71 8e af 42 72 0c 07 3d 64 7d 0e 3e
       0.2096844 87.778206 0.032970853 0.1391502
0000e0 c0 b3 82 43 be 83 f6 44 ab a0 d9 45 e9 be 9f 43
       261.4043 1972.117 6964.0835 319.4915
0000f0 58 fd 58 42 ed e9 11 3f 93 2a a9 42 37 90 1c 46
       54.247406 0.5699757 84.58315 10020.054

model.4.weight f4 [64, 64]
000000 07 9b 85 3b 0e 09 ca bb 30 2f d5 38 5d 62 9a bb
       0.0040773186 -0.00616563 0.00010165421 -0.004711433
000010 b0 11 07 bc cb 32 2d 3d f1 45 58 bf 13 f4 d3 ba
       -0.008243963 0.042284768 -0.8448172 -0.0016170762
000020 1c b0 2f 3d fc ca 83 be 0c b5 78 3b a3 69 e8 39
       0.04289256 -0.25740802 0.003794971 0.00044329194
000030 cd fc de ba d6 79 8e 3a 96 70 3a bd 6c b5 8b ba
       -0.0017012596 0.001087005 -0.045517527 -0.0010658926
000040 63 1e 33 3d e8 0d 5a 3b c7 4b b7 b9 4e 3d fb 3c
       0.04373015 0.003327245 -0.00034960939 0.03066888
000050 e4 7a 4d 3a b6 08 96 ba bb bd 39 ba 32 0b 0e b9
       0.00078384415 -0.0011446688 -0.0007085462 -0.00013546346
000060 66 36 c0 39 33 21 45 3b db 70 e5 3b c3 cb f5 ba
       0.00036661624 0.0030079603 0.007001979 -0.0018752742
000070 8f 65 8c 3a 8f e9 6f 3a 7c 1f d3 3a 64 cf ac ba
       0.0010711419 0.00091519294 0.0016107406 -0.0013184366
000080 89 42 c9 3b 09 16 d4 3a 72 45 a3 3b 21 aa 1a 3c
       0.006141965 0.0016180883 0.0049826438 0.009439976
000090 cf bf cc ba c7 46 c3 b8 6d f6 6c 36 ef 6b 6b bb
       -0.0015621128 -9.311508e-05 3.531018e-06 -0.0035922488
0000a0 b9 98 bf bd 33 86 44 3a 02 4d ae 39 d2 6e 8b ba
       -0.093553014 0.0007496804 0.00033245242 -0.0010637885
0000b0 31 50 04 3a 71 c5 b9 3b 35 11 4b ba f2 0a 23 37
       0.000504735 0.005669289 -0.00077463995 9.7181055e-06
0000c0 8c ca 82 3c 58 08 cb ba 47 2e 80 bc 80 8d 8d 3c
       0.015965723 -0.0015490158 -0.015647067 0.017279387
0000d0 9e ef c3 3a 22 3d 8a ba 03 f9 d6 be 1d a5 ab bb
       0.0014948731 -0.0010546783 -0.41986856 -0.005238189
0000e0 6e 7f fb 3a 57 58 13 3a 5b 0a aa 3a 60 ec b5 3b
       0.0019187757 0.00056207686 0.0012973057 0.0055518597
0000f0 7a 33 e9 b9 2d da b2 bb 80 6a 80 bb cd 7a ac 38
       -0.00044479576 -0.0054581375 -0.003918946 8.2244725e-05
000100 71 a9 89 ba 51 eb a9 3b 9a aa 95 bb c4 74 8f 3c
       -0.0010502768 0.0051855226 -0.0045674564 0.017511733
000110 07 7f 81 3c ee e8 94 3e 1a 52 17 3d 98 7b c2 ba
       0.015807642 0.2908396 0.036943533 -0.0014837859
000120 ab f6 f4 3a c8 53 16 3b 20 06 f6 bc 7b d8 a6 b9
       0.0018689235 0.002293812 -0.030032218 -0.00031823278
000130 09 31 89 bb 10 9f 09 3a 38 fb 13 3c 7d 83 06 bc
       -0.0041867536 0.00052498374 0.009032063 -0.00821006
000140 53 9e fc bd 44 39 e2 3b 14 6e 11 3c a4 d9 98 3d
       -0.123348854 0.0069037993 0.008876342 0.07463387
000150 00 28 16 3d 4c b2 21 3b 89 5f 33 3a bf 47 57 3e
       0.03665924 0.0024672924 0.0006842544 0.21023463
000160 15 7e c6 3b 8b 87 5f 3e 91 b1 1e 3c fd 5d 3a 3d
       0.0060575106 0.2182905 0.00968589 0.04549979
000170 41 42 b9 3a 87 dd 7d 3f 6f f9 4a bb 97 7e 26 3b
       0.0014134125 0.9916615 -0.0030971428 0.0025405043
000180 cb 54 03 bd ea 52 e2 bc d5 0b 97 3c 0c c7 1b bb
       -0.032063287 -0.027627427 0.01843826 -0.0023769764
000190 94 e3 1e bc c8 b0 0b 3b 69 eb 04 3c ee 53 f2 bc
       -0.009697814 0.0021315087 0.008112767 -0.029581036
0001a0 4c 68 32 bb 0f fe 0b bb 45 d0 40 bc a2 bd 8e 39
       -0.002722281 -0.0021361148 -0.011768405 0.00027225638
0001b0 07 7a 99 3d 6a 54 28 3e 0f 12 42 3c 4a 43 37 3b
       0.07493978 0.16438451 0.011845126 0.0027963691
0001c0 40 28 a6 bc 39 fb 9c bc 1a fb 26 bc 68 ef 34 bc
       -0.020282865 -0.019162761 -0.010191703 -0.011043407
0001d0 a9 ce 09 bc 6f c3 cc bb bc ce 28 3d d4 fb 40 3b
       -0.008411088 -0.0062488834 0.041212782 0.0029446976
0001e0 0a e4 42 3c 5b 0f 47 bb 82 3e 77 3b cf 1e bb 3c
       0.011895189 -0.0030374143 0.0037726467 0.02284184
0001f0 d6 91 39 3b 64 ad ba bc 50 63 b5 bb f4 3c 8b 3a
       0.0028315685 -0.022787757 -0.0055355206 0.0010623024
000200 a3 60 11 bc 7e 13 15 bc 0b 55 52 3c b6 13 24 bd
       -0.008873138 -0.009098886 0.012837659 -0.04005786
000210 07 4a cc bd 86 97 cf 3c 71 86 36 be d6 42 ba bc
       -0.09975057 0.025340807 -0.17824723 -0.022736948
000220 cd 65 27 bd c0 cf e4 3a bb b7 9d 3e 68 fa 10 bb
       -0.04086857 0.0017456934 0.30804238 -0.002212191
000230 f7 72 b5 bc 8c 63 a1 39 0f af 6a bc 36 3b 3c bc
       -0.022149546 0.0003078248 -0.014323964 -0.011488726
000240 47 e6 54 be 7d 51 05 3b 0b ac eb bd b9 8f 8d bd
       -0.20790969 0.002034276 -0.11507424 -0.069121785
000250 86 c5 0a bd 0e 3b c3 ba e6 c2 b6 bb 30 c8 c2 bc
       -0.03387978 -0.0014894919 -0.005577433 -0.023777097
000260 85 bd 02 bb 2e af 04 bd 00 09 02 be f7 41 68 bd
       -0.0019949388 -0.032393627 -0.12698746 -0.056703534
000270 cd f2 c3 3a 87 cb a2 bc 6e 83 ab 3e 90 44 35 bb
       0.001494968 -0.01987244 0.3349871 -0.0027659275
000280 fd ae b2 bd 3d 85 02 be c0 50 28 bc 3c 4f 82 bc
       -0.087247826 -0.12746139 -0.010273159 -0.015906923
000290 7b f9 bc bb 76 58 96 3a 90 5a c7 3a 15 62 2d bd
       -0.005767045 0.0011470455 0.0015209485 -0.042329866
0002a0 d2 a9 55 3a 34 0d 1c bd 25 bf e2 bb 18 98 88 3b
       0.00081506104 -0.03809853 -0.006919759 0.0041685216
0002b0 af a1 da bc f5 9f ac bd de e3 11 3a c0 29 89 3a
       -0.026688425 -0.08428947 0.0005565266 0.0010464713
0002c0 e5 21 a1 bd df 5d d0 bc a4 ac 19 bd b7 d1 01 bd
       -0.07867793 -0.025435386 -0.03751816 -0.03169414
0002d0 d2 b7 5e be af 23 08 bd 07 13 73 bd cd 85 8e bd
       -0.2174981 -0.033237156 -0.059344318 -0.06959114
0002e0 f4 94 13 bd 52 14 b6 bb e6 ed b1 3a 2c 02 cf bc
       -0.036030725 -0.0055566216 0.0013574928 -0.02526959
0002f0 94 30 e1 bb 30 8e da bc db da eb bc ef 16 c5 38
       -0.006872246 -0.026679128 -0.028790882 9.397964e-05
000300 26 37 eb ba f1 c7 8c bb cd 0e 7b bb fe 37 ba bb
       -0.0017945513 -0.004296296 -0.0038308382 -0.0056829443
000310 71 e1 75 bc 65 29 8f 3d d3 e9 1d bd 60 4f b5 be
       -0.015007363 0.06990317 -0.03855307 -0.3541212
000320 d0 dd 98 bb cf aa 11 3b 56 79 5b be a7 56 52 bb
       -0.004665114 0.0022227054 -0.21433005 -0.0032095106
000330 81 3d 5d be 6e a5 30 ba e5 60 b9 ba 1e 99 bc be
       -0.21605493 -0.0006738518 -0.0014143257 -0.3683557
000340 01 73 8b bd 52 80 2e 3a df 5f 6d bf cc c3 fe bb
       -0.06809045 0.00066566945 -0.9272441 -0.0077748057
000350 d5 5f 62 bf 63 6f 55 bb 3d 47 3e bb 39 3c 84 3a
       -0.8842748 -0.0032567612 -0.002903416 0.0010088749
000360 a7 88 27 bb b1 57 05 b9 66 f6 15 bc 9b e3 51 bf
       -0.002556363 -0.00012716536 -0.009152984 -0.81987923
000370 37 17 b0 3a 3b 5d c4 ba 53 8f 34 3c 09 06 d9 be
       0.0013434653 -0.0014981398 0.011020499 -0.42387417
000380 38 0d b9 bc f7 f4 95 bd a2 54 34 bf 23 1c c4 3c
       -0.022589311 -0.07322114 -0.7044164 0.023939198
000390 17 f3 bb bb fc 91 6d bb 23 f8 23 bb 03 6b 42 bc
       -0.0057357657 -0.0036250344 -0.0025019727 -0.011866334
0003a0 5a ad 85 3b 0c 02 85 3c f3 87 cc be e1 96 f2 ba
       0.004079503 0.016236328 -0.3994747 -0.00185081
0003b0 0c 34 23 3b 75 21 b8 bc d1 ca a0 bb 52 db a7 bb
       0.0024902849 -0.022476891 -0.00490699 -0.0051225806
0003c0 e6 8a 18 bd 3e 1d 64 be 0e aa c1 ba 32 a2 9e bc
       -0.03724184 -0.2227678 -0.0014775412 -0.01936445
0003d0 9b ab 87 3c c9 27 5e be 10 63 25 bc 30 30 03 3c
       0.01656132 -0.21694864 -0.010094419 0.008007094
0003e0 62 25 f6 be 5f 5a c4 ba d1 65 e0 3a fc 45 6f be
       -0.48075396 -0.0014980546 0.0017120187 -0.2336654
0003f0 33 cf e1 be 2d a9 67 bc b9 82 4d be d5 eb bd 39
       -0.44103393 -0.014139456 -0.20069398 0.00036224598

model.4.bias f4 [64]
000000 05 59 38 3d f8 b4 62 bc d6 3b 98 3c 8f c4 e2 bc
       0.04500677 -0.013837092 0.01858322 -0.027681617
000010 ba d5 28 3c f5 bf f2 bc d8 ab 42 bb 1d ae b1 bd
       0.010304863 -0.029632548 -0.0029704478 -0.086757876
000020 b8 b3 71 3d df 77 43 3d 37 0d 09 3d 47 c2 f5 b7
       0.059009284 0.04772174 0.03345987 -2.9296743e-05
000030 7d f8 b3 3d b3 e8 a3 bd fa 3a 56 bd 1b 90 a1 3d
       0.0878763 -0.08003368 -0.05230234 0.07888814
000040 a5 20 82 bd 63 ae ba 3d ce ac 1c bd 89 81 81 bd
       -0.06353883 0.09115293 -0.038250737 -0.06323535
000050 9b c1 bc 3d 07 9c 7f 3d 8e 95 05 3d 71 a1 27 bd
       0.09216615 0.06240466 0.03261333 -0.040925447
000060 1d 3d b6 3d 32 3f b4 bd 33 31 ca 3c 05 30 b6 3d
       0.08898375 -0.08801116 0.024681663 0.08895878
000070 ae 7e 96 bd a7 6d 5e bd c1 5f 37 bd 76 93 91 3a
       -0.07348381 -0.05430379 -0.044769052 0.0011106569
000080 56 89 f4 3c 3a 87 bd bd fb 09 9f bc 7a 37 96 3c
       0.029850643 -0.09254308 -0.019413939 0.018337
000090 84 a4 9e bd f9 48 ad 3d c8 17 49 3b 78 b9 36 3d
       -0.077462226 0.08461184 0.003068434 0.04461047
0000a0 67 e9 ad bd 93 fe b3 bc 32 70 69 bc d8 6d 7a 3d
       -0.084917836 -0.021971976 -0.014247941 0.06113991
0000b0 fa 73 ad 3d 3a 86 98 3d 8d 47 ae 3d 67 52 3e bc
       0.084693864 0.07447477 0.08509741 -0.011616326
0000c0 d2 f3 5b 3d f9 16 8c bd 3d 83 aa bd 2a a6 26 bd
       0.053699322 -0.06840319 -0.08325813 -0.04068581
0000d0 44 a7 cc bc d4 77 a9 3c 7f db ac bd 44 ec 33 3c
       -0.024982102 0.020687021 -0.08440303 0.010981623
0000e0 57 66 bd bd b8 dd 9d 3d 78 ec 14 3c d7 1c 8a bd
       -0.092480354 0.07708305 0.009089582 -0.06743782
0000f0 2e 1d a7 bb 4c 1f 05 3c 71 14 20 3d ae 61 11 3c
       -0.005099914 0.008125138 0.039081994 0.008873386

model.5.weight f4 [64]
000000 58 57 b4 3e 02 5e ee 3e 77 b2 de 3e 74 e7 07 3f
       0.35222888 0.46556097 0.43495533 0.53087544
000010 54 2b d6 3e 21 05 34 3f d3 9f 09 3f 49 c6 49 3f
       0.41829932 0.70320326 0.537595 0.78818184
000020 ba c7 0f 3f 4a 41 ee 3e a2 8b f9 3e fe 30 f0 3e
       0.56164134 0.46534187 0.48739344 0.46912378
000030 76 f6 03 3f b4 42 14 3f 60 ee 4f 3f f1 5e 12 3f
       0.51547945 0.5791428 0.81223106 0.5717612
000040 6a 18 0d 3f 3f 54 14 3f 08 a4 0c 3f 59 70 8f 3e
       0.5511538 0.5794105 0.5493779 0.28015402
000050 69 4a b5 3e 16 91 90 3e 51 35 e9 3e 62 3e 12 3f
       0.35408333 0.28235692 0.4554849 0.5712644
000060 b2 99 13 3f a3 f7 f6 3e 85 1d 19 3f 6b b9 0b 3f
       0.57656395 0.48235807 0.5981067 0.545798
000070 a2 0a e7 3e bc 82 9d 3e ce d7 05 3f 5e 21 f5 3e
       0.451253 0.30763805 0.52282417 0.4787702
000080 ee 3b f3 3e cf 64 ce 3e 27 89 d3 3e c4 71 18 3f
       0.4750666 0.40311286 0.41315576 0.5954859
000090 c9 75 e5 3e 4c 90 e8 3e bf 4c 37 3f 2c dd 09 3f
       0.44816425 0.4542259 0.7160148 0.53853106
0000a0 54 f4 02 3f 6c 64 09 3f 15 64 06 3f fb 52 48 3f
       0.51154065 0.53668857 0.52496463 0.7825162
0000b0 6f 08 e2 3e 1c 2f 55 3f 22 bb dd 3e d0 54 5e 3f
       0.4414706 0.8327501 0.43306834 0.86848164
0000c0 a9 2e 10 3f 5e 55 08 3f 4e 69 24 3f 6f b1 f8 3e
       0.563212 0.5325526 0.6422318 0.4857287
0000d0 cc 3a f9 3e a3 26 f2 3e 2e 88 e0 3e 30 0c 01 3f
       0.4867767 0.47295102 0.43853897 0.5040922
0000e0 33 68 80 3e d5 6f e2 3e 88 29 05 3f c5 c8 ff 3e
       0.25079498 0.44225946 0.52016497 0.49957862
0000f0 14 e8 13 3f ff 08 e1 3e 78 fd ef 3e f6 8f 37 3f
       0.57776 0.43952176 0.4687307 0.7170404

model.5.bias f4 [64]
000000 de 8f 8e be 75 78 54 bf ef dd 11 bf c8 af be be
       -0.27844137 -0.829963 -0.5697927 -0.37243485
000010 3d 10 29 3e 0d 31 fe be ad 32 98 be 6b 25 c0 be
       0.165101 -0.49646798 -0.29726163 -0.37528548
000020 c5 44 eb be 28 17 f9 be 73 86 03 bf 17 5e c1 be
       -0.45950904 -0.4865048 -0.5137703 -0.37767097
000030 9a 11 14 bf cb d3 ed be 52 de 12 bf d6 9d a2 be
       -0.5783936 -0.46450648 -0.57370484 -0.31761044
000040 f7 62 b7 be bd 77 04 3d b2 0e b4 be 75 9b ad be
       -0.35817692 0.032340754 -0.35167462 -0.33907667
000050 d1 0c 0b 3e ed bf c4 be c9 d1 df be c8 bb c4 be
       0.13579108 -0.38427678 -0.4371474 -0.38424516
000060 7d 81 a4 be e1 dc af be 7e d4 94 be 48 f9 57 bd
       -0.32130042 -0.34348205 -0.2906837 -0.052727968
000070 e9 a1 12 bf 0f 03 c1 be c3 91 1e bf d5 57 d7 be
       -0.57278305 -0.37697646 -0.61941165 -0.42059198
000080 4c 6b eb be 7b 7e 01 bf 59 ea 6d be cf 8f f5 be
       -0.459803 -0.5058362 -0.23233928 -0.4796128
000090 51 40 c6 be 79 11 05 bf 8c 46 01 bf 75 50 ac be
       -0.38720945 -0.51979786 -0.5049827 -0.33655134
0000a0 bd 4b 12 bf ca 06 df be be 57 b8 be 84 16 05 bf
       -0.5714682 -0.43559867 -0.36004442 -0.5198748
0000b0 12 16 30 bf 51 b4 16 bf c3 0a 85 be 17 e0 1c bf
       -0.68783677 -0.5886889 -0.25984773 -0.61279434
0000c0 40 0d 62 be a7 0c f7 be 71 e6 19 bf 8c 40 19 bf
       -0.22075367 -0.4825184 -0.6011725 -0.59864116
0000d0 57 82 ec be b4 d5 4c bd 30 a8 07 bf a7 d5 73 be
       -0.4619319 -0.05000849 -0.5299101 -0.2381197
0000e0 d1 da 95 bd a5 8d 25 bf 7d cf 12 bf a4 73 bd be
       -0.073171265 -0.6466926 -0.5734785 -0.3700229
0000f0 37 d0 c1 3d da 37 19 bf 1d f8 cc be 45 50 f5 be
       0.09463542 -0.5985085 -0.40033045 -0.47912803

model.5.running_mean f4 [64]
000000 6b 00 72 be 59 4f 89 3e 83 f2 89 be 65 df fd be
       -0.23632972 0.2681835 -0.26942834 -0.495845
000010 3b fd 56 3e 0d 4b 2c bf 43 58 c4 be 35 c7 95 be
       0.20995037 -0.6730202 -0.38348588 -0.29253545
000020 a2 04 72 be 7c e5 9b be b9 a7 29 bf 5a 0d 6a be
       -0.2363458 -0.3044852 -0.6627155 -0.22856656
000030 48 ae bd be 87 ba ec be a9 d4 4b bf 0e cb 43 be
       -0.3704703 -0.4623606 -0.7962137 -0.19120428
000040 4a d2 7f be c4 2e aa 3e 44 70 d0 be c5 88 7c 3d
       -0.24982563 0.33238804 -0.40710652 0.06165387
000050 33 80 bc 3e ce 83 f0 3d ea 3f da be 76 27 33 be
       0.36816558 0.1174389 -0.42626888 -0.17495522
000060 93 a8 3e bd 6c f3 78 be b5 07 41 be e0 e2 b0 3d
       -0.046547484 -0.24311608 -0.18850596 0.08637023
000070 a3 d8 8d bc 3d 8b 8a bd d6 70 23 bf 07 bc e0 be
       -0.017315214 -0.06764839 -0.6384405 -0.43893453
000080 79 6e 83 bd a8 ce b8 bd 2e 64 c8 be 37 c0 83 3e
       -0.06417555 -0.090237916 -0.3913893 0.25732586
000090 b4 7e 02 bf b4 76 17 bf ba cc 35 bf 75 69 60 be
       -0.50974584 -0.591655 -0.7101551 -0.21915229
0000a0 eb 45 05 bf 1b 0e ff be 7d 80 b3 be dd 92 64 be
       -0.5205981 -0.4981545 -0.35058966 -0.22321649
0000b0 23 19 2a 3e 4a 37 2e bf 62 5d 06 3c 86 38 44 bf
       0.16611151 -0.68053114 0.008200975 -0.7664875
0000c0 ab bb f6 bd 9b c2 dd be a4 c0 ca be 5b 35 c7 be
       -0.120475136 -0.43312535 -0.39600098 -0.38907894
0000d0 e6 59 a1 be e2 ed 25 3e eb 88 d1 3b 92 cd a0 be
       -0.315139 0.16204026 0.0063944957 -0.31406838
0000e0 63 d2 e0 bd 91 f1 bf be 04 15 9d be 13 85 b2 be
       -0.10977628 -0.37488988 -0.30680096 -0.34867153
0000f0 0e 08 1e 3e 60 29 f3 be 85 4e 36 be 02 20 a8 be
       0.1543276 -0.47492504 -0.1780339 -0.3283692

model.5.running_var f4 [64]
000000 cf bc cf 3d a7 54 f1 3d 2a 9d b3 3d 12 44 5d 3e
       0.10143434 0.11783724 0.08770211 0.21607998
000010 6e 7a 01 3e bc 5b 44 3f 9f 9f b9 3e 80 09 85 3e
       0.1264436 0.76702476 0.36254594 0.2598381
000020 91 22 36 3e 8a 04 0e 3e f7 ea 03 3f 1c 71 85 3e
       0.17786624 0.13868919 0.515304 0.26062858
000030 72 ec 1d 3e 57 67 2c 3e 03 c7 82 3f a3 eb 62 3e
       0.15422228 0.16836296 1.0216984 0.22160201
000040 4d 0c 00 3e 26 1a 04 3e 20 be 9e 3e 65 dd dc 3c
       0.12504692 0.129006 0.3100443 0.026961038
000050 ed d7 2f 3e 5c 09 ba 3c 27 66 53 3e cc 1c a1 3d
       0.17172213 0.022709541 0.20644437 0.07866821
000060 2b 2f 31 3d 16 25 7c 3d b1 27 5c 3e ed af 2f 3e
       0.043257874 0.061558805 0.21499516 0.17156954
000070 c5 3e f1 3c ee d8 b9 3c 02 46 60 3e 56 be 50 3e
       0.029448876 0.022686448 0.21901706 0.20385107
000080 f4 5e 67 3d 09 4a 4d 3d 73 6d 94 3e 69 49 14 3d
       0.05648704 0.050119434 0.28989753 0.036202822
000090 f0 48 3b 3e 09 9d a9 3e fc 7d 6f 3f ed fe 65 3e
       0.18289542 0.3312762 0.9355161 0.22460528
0000a0 6b 4a 82 3e 03 21 a1 3e a7 02 bd 3e fd a6 82 3e
       0.254474 0.31470498 0.36916086 0.25518027
0000b0 6c 19 57 3d 61 74 86 3f 16 a6 c0 3c 7f 22 86 3f
       0.05251448 1.0504266 0.023516696 1.0479277
0000c0 7c 0b 2d 3e 9f 06 24 3e 7c 85 e4 3d d7 95 8b 3d
       0.16898912 0.16018151 0.111582726 0.06815689
0000d0 56 ba 4c 3e 24 5c 32 3d 94 fa df 3c b6 db a6 3e
       0.19992957 0.043544903 0.027341165 0.325895
0000e0 44 64 32 3c 00 d6 5e 3e c9 9d 75 3e 82 70 2f 3e
       0.010888163 0.21761322 0.23985972 0.17132762
0000f0 27 ab ff 3d 91 21 2e 3e be aa e1 3d bb 43 7a 3e
       0.124838166 0.17004992 0.110188946 0.244399

model.8.weight f4 [64, 64]
000000 c0 df 4e 3c bd 3b 73 3c 7f 42 a9 3d 81 6b 4f bc
       0.012626588 0.014845786 0.08264636 -0.012659908
000010 1c 90 61 3b 8a f5 8a bf 5b 88 9b bb fe 3b 04 3c
       0.0034418171 -1.0856183 -0.0047464794 0.008070944
000020 aa ec 3b 3d 2d 13 32 3d 51 08 7d 3d 2b a9 f7 3c
       0.045879997 0.04347532 0.06177551 0.030232033
000030 63 cc 08 3e 3c 91 10 bd 3d b3 87 bf 66 4b 99 3c
       0.13359217 -0.035294756 -1.0601574 0.01871271
000040 1c 7c 0f 3c 30 96 0c 3b fb 1e b5 3c bc 10 ee bb
       0.008757617 0.0021451823 0.0221095 -0.0072651785
000050 18 29 33 3b ba dd f2 3a ff c7 4c bc b4 0c 44 3c
       0.0027337726 0.0018529214 -0.012498855 0.011965919
000060 5e 74 8b 3b 3b 62 18 3c 4a cc 06 bd f8 f2 0e 3c
       0.0042558154 0.009300764 -0.03290967 0.00872492
000070 b8 fb de b8 b1 46 ed bc 9c 62 18 3d 28 3a ec bb
       -0.00010632671 -0.028964372 0.037203416 -0.007209081
000080 5e e4 a9 3b 57 23 33 3b 56 43 47 3b 97 d9 00 3c
       0.005184694 0.0027334297 0.0030405126 0.007864377
000090 d1 5c 10 3d 21 5a 16 3d 98 ce 91 bf 70 3f 94 bb
       0.035244767 0.036707047 -1.1391172 -0.004524164
0000a0 5c 63 40 3d 36 8e 90 bc 5b 2a e2 b9 97 e0 0a 3b
       0.046969756 -0.017645936 -0.00043137636 0.0021190995
0000b0 31 de 5d bc 25 b7 86 bf 94 58 d6 b9 1f 60 83 bf
       -0.013541744 -1.0524641 -0.00040883257 -1.0263709
0000c0 21 a7 96 bb 0f b9 58 3c d8 f5 4f bc b3 bc a9 ba
       -0.00459756 0.013227715 -0.012692891 -0.0012949914
0000d0 da 3d dd 3c 4b b6 d4 3a 20 ef 87 bb dd d8 3b 3c
       0.027007032 0.0016228644 -0.004148379 0.011465278
0000e0 cf 28 80 3b 34 99 bb bc e2 d9 25 3c f9 92 28 3d
       0.0039111148 -0.022900201 0.010122748 0.04115579
0000f0 a8 b6 72 3b 2f a4 f7 3b e0 76 61 3c 8f e9 16 bd
       0.003703514 0.007557414 0.013761252 -0.036843833
000100 2b 79 75 bd 88 a2 35 bd b9 53 97 3c 3b a5 a9 3b
       -0.059930008 -0.044344455 0.01847254 0.0051771677
000110 cc 1c b7 bb fa cc 8a bf cd 32 ae 3b ec ec d0 bc
       -0.0055881497 -1.0843804 0.0053161145 -0.025503598
000120 b4 6a 33 3c 31 8e 9c 3b 46 42 16 3d 3e 6d 25 3c
       0.010950733 0.0047776927 0.036684297 0.010096846
000130 2c 72 f3 3c a8 43 48 3b 51 92 83 bf 1e c9 e6 3b
       0.029717527 0.0030557904 -1.0279027 0.007043018
000140 89 2d 61 bc 65 83 1c bc d0 e7 5a 3c 03 38 73 3b
       -0.013743767 -0.009552811 0.0133609325 0.0037112243
000150 66 90 3d bc 4e 3e a0 bb 3c e3 95 3c 9a f8 f6 bc
       -0.011570072 -0.00489024 0.01829683 -0.03014784
000160 5e 70 78 bc 59 64 39 bc 22 2e fd 3a 71 1c 5b bc
       -0.015163509 -0.011315429 0.0019316117 -0.01337348
000170 23 99 e0 bb ab 62 a0 bc ba 24 07 3e c0 a2 b7 3b
       -0.006854193 -0.019578299 0.13197604 0.005604118
000180 21 ad 1d bc 33 82 0a bb ed 60 48 3c 5e 21 22 bc
       -0.009623797 -0.0021134734 0.01223014 -0.009895651
000190 57 bd 6c 3b 1e 5e a4 3c a6 81 8e bf 2d fe 95 3c
       0.0036123598 0.02006441 -1.1133316 0.018309677
0001a0 96 1f 0a 3c f6 52 a6 3c 28 ef bb 3b ab 0b 9f 3a
       0.008430382 0.02030323 0.0057352968 0.0012134215
0001b0 4a 73 5f bc 32 cd 81 bf 58 01 90 bb 96 e6 7a bf
       -0.013638327 -1.0140746 -0.0043946914 -0.98008096
0001c0 5d 8a 69 3b 4d a7 45 39 2e 19 17 3b 50 f5 bd 3c
       0.003563545 0.00018849708 0.002305578 0.023188263
0001d0 53 bd a9 3c 41 4b 17 bc d5 c2 8f ba f5 47 46 3c
       0.02072016 -0.0092342505 -0.0010968099 0.012102117
0001e0 9e 6a 5f bb a7 65 95 3c dd 69 2a 3b 9e 3c 24 3c
       -0.0034090648 0.018236948 0.002600304 0.010024218
0001f0 6f c5 2f bc b9 4f 3d bc e1 f1 d0 3c 49 ee 6a bc
       -0.010728224 -0.011554652 0.025505962 -0.014339038
000200 f2 50 f9 3c 1c 97 4a 3b ba 33 95 bd 86 b7 5c 3b
       0.030434106 0.0030912822 -0.07285257 0.0033678724
000210 49 22 3b bc ce 6f ee bd 88 27 43 bc 8a 51 54 bd
       -0.011421748 -0.11642419 -0.01191128 -0.051835574
000220 3d db dd bc 74 0b 2d bd da 8c b0 bd 38 43 dd bc
       -0.02708208 -0.04224725 -0.08620615 -0.027009591
000230 08 7b 45 be da 8f 72 bc d0 bc d7 bd c3 54 8f bc
       -0.19285214 -0.014804805 -0.1053406 -0.017496472
000240 d4 0a 34 bd d2 ad c1 bc 50 6e 82 bc 2d 72 50 3c
       -0.04395564 -0.023642454 -0.015921742 0.012722534
000250 a1 98 37 bd 18 76 dc bb 26 14 61 3d c9 ab b3 3d
       -0.044823293 -0.006727945 0.054950856 0.08773
000260 0e 34 03 bc 1e ee 32 3c 5e d6 56 bc f0 f2 09 bd
       -0.008008016 0.010921029 -0.013112633 -0.03367895
000270 73 a8 34 3c 76 b8 0a bd 3d 8d 2b be 1d 0b 42 3d
       0.01102649 -0.033867322 -0.16753097 0.04737388
000280 10 56 01 3d 7f dc 29 bb e6 fb 6f bc e6 ef 0d bd
       0.031576216 -0.002591878 -0.01464746 -0.034652613
000290 b1 4e 2c bc 51 0e 60 3b ae 7e d9 bd 0e 72 fb bc
       -0.010516808 0.003418822 -0.10619865 -0.030694034
0002a0 90 19 c6 bd a8 55 1a bc 6f cf 30 bc 96 b9 aa bc
       -0.096728444 -0.009419836 -0.0107916435 -0.020840447
0002b0 ba f5 93 bc 18 dc be bd 0b 7a ca bb ef bc c9 bd
       -0.018061507 -0.09319323 -0.0061790994 -0.09850489
0002c0 74 2b f7 bb 80 e4 36 3e 10 c8 16 bc 62 9f f0 bc
       -0.007543022 0.17860603 -0.009202972 -0.029372875
0002d0 95 8b a0 bd c4 b2 50 bc ba 10 ad bb c7 d5 80 bc
       -0.07839123 -0.012737934 -0.005281535 -0.015726937
0002e0 2c 4a 4d bb d1 b9 16 be 83 e7 af 3e aa 40 ea bc
       -0.0031324727 -0.14719321 0.34356317 -0.028595287
0002f0 50 2c d9 bc 2d 7f 83 bd 72 f1 22 bd b6 72 10 3f
       -0.026510388 -0.06420741 -0.03978104 0.56425035
000300 6e 67 2d 3d 0a 16 39 3d 70 f4 2d be a3 fe 8e bc
       0.042334966 0.045187034 -0.16987777 -0.017455405
000310 6d 67 6d 3c 2a ce 7d be 94 fd 59 be dd 56 40 3c
       0.014489991 -0.24785677 -0.21288139 0.01173946
000320 af 2d 77 be b8 5b 15 be 32 f5 64 3e 31 ff 06 be
       -0.2413852 -0.14585769 0.2235916 -0.13183285
000330 32 43 04 bf 74 38 d4 bd 1e 7b 96 be 30 0e 55 be
       -0.5166503 -0.1036233 -0.29390806 -0.20806193
000340 bc 72 1b bc df 52 8e 3c 69 5d 35 be ce 17 0a bc
       -0.009487804 0.0173735 -0.17711414 -0.008428527
000350 ce 1a 0f 3d 0a 45 b2 3c 40 37 07 3d 90 9a a2 3c
       0.034937672 0.021761436 0.033011675 0.019849092
000360 a1 ee 42 3d fa 31 9c 3c 3b 2d cf bd e4 67 42 3c
       0.047590856 0.0190668 -0.10116049 0.01186559
000370 03 14 bc bc 71 92 07 3d 14 fc 83 be 50 ef 6b bc
       -0.022958761 0.03309864 -0.25778258 -0.014400318
000380 62 69 5c 3d 25 cb aa 3b f2 61 7a bd 52 e7 43 3d
       0.05381144 0.005212205 -0.061128564 0.047828026
000390 40 fc 7a bd 27 b3 04 3e 9a fb 9c be 75 7f 75 bd
       -0.06127572 0.12958966 -0.30660707 -0.059936006
0003a0 dc 95 33 3d c3 82 fa bc 95 0a 66 be 00 51 b2 bd
       0.04384409 -0.03057993 -0.22464974 -0.08706856
0003b0 04 4a 3a 3d 72 d7 97 be 47 9c 18 3d 85 03 b5 be
       0.045480743 -0.2965656 0.037258413 -0.35354248
0003c0 fd 15 da bc e3 e7 02 be 20 22 5d be 37 3a 93 bd
       -0.026621813 -0.1278377 -0.21595049 -0.07188838
0003d0 79 2a 58 bd 6e 9c c5 3c 74 ff 8b 3b 47 1e 6a bd
       -0.05277488 0.024122443 0.0042723957 -0.05715778
0003e0 09 3b a2 ba 85 ca 83 3d 31 db 80 bb ae 1e 1c be
       -0.0012377213 0.06435112 -0.0039323797 -0.15246078
0003f0 82 b7 09 3d cb e2 33 3e f5 2f 13 bd 41 97 7d 3d
       0.033622272 0.17566983 -0.035934407 0.061911825

model.8.bias f4 [64]
000000 15 43 a6 bd 6e 91 28 3d 16 60 78 3d b5 72 bc bc
       -0.08118264 0.041154318 0.06063851 -0.023003915
000010 3d a4 bc 3d 66 78 29 bd 5c 12 2b bd 5d 0b 97 bd
       0.092110135 -0.041374587 -0.041765556 -0.07375214
000020 2f f8 ca 3c b3 90 0f bd 17 e0 49 bd 87 c3 0f 3c
       0.024776546 -0.035050105 -0.049285974 0.008774645
000030 d4 a2 e9 bc 99 ed 83 bd 08 04 b4 3d d4 e1 2f bd
       -0.028520025 -0.064418025 0.087898314 -0.042939976
000040 5c 1e 3a 3d 3f 3c 80 bc e9 42 6c 3d 48 b2 27 bd
       0.04543911 -0.015653728 0.057680998 -0.040941507
000050 51 00 26 bd dc 2d a9 bd e5 3b 1e bd 99 d1 23 3c
       -0.040527645 -0.082607 -0.03863134 0.009998702
000060 bd 5a 8d bd 5a 49 09 bd 21 05 ca 3c df c0 98 3d
       -0.069020726 -0.03351722 0.024660649 0.07458662
000070 3b 1f a5 3d 0a b7 08 3d 68 4a 98 3d 23 e5 b4 3c
       0.08062597 0.033377685 0.07436067 0.022081917
000080 33 b5 a2 bd 39 72 5a bd 8e fd b4 bd d7 06 b4 3d
       -0.07944717 -0.053331587 -0.08837424 0.08790367
000090 2a 73 26 bd 85 d1 14 bd b4 e8 8b bd 89 16 f0 bb
       -0.040637173 -0.036332626 -0.06831494 -0.007326905
0000a0 59 d5 f3 3c 76 e5 b0 3b 82 4a 3f 3b c1 6e bd 3c
       0.029764818 0.0053984476 0.0029188697 0.0231241
0000b0 25 3f 8f 3d 85 a3 b7 bb b3 83 0c 3c ba b5 a8 3d
       0.06994466 -0.00560421 0.008576321 0.082377866
0000c0 b6 f1 0a 3d 3d 87 99 3c ac 36 a9 3d 00 6a 9b 3c
       0.03392192 0.018741244 0.08262381 0.018971443
0000d0 6b 1c 4c bd eb 11 e2 3c 13 e0 99 3d 59 51 98 bd
       -0.04983179 0.027596435 0.07513442 -0.07437391
0000e0 e3 0e b2 3d 00 fb 36 3d 7e 99 42 bd f9 2c e0 3c
       0.08694246 0.044672966 -0.047509663 0.027365195
0000f0 be 4e 29 bd b0 9f 49 bc 2b e1 ae 3c 89 d8 84 3c
       -0.04133486 -0.012306139 0.021347603 0.016216533

model.9.weight f4 [64]
000000 cd 67 35 3f 8b aa 1d 3f 02 0a 16 3f c4 54 13 3f
       0.7086151 0.6158835 0.5860902 0.5755122
000010 52 a4 2e 3f 00 d6 0b 3f 0d cd 22 3f cc 47 2b 3f
       0.6821948 0.54623413 0.6359413 0.6690643
000020 6f 7b 1d 3f 3d 32 11 3f d0 50 17 3f 8c 59 1c 3f
       0.6151647 0.5671728 0.59107685 0.6107414
000030 9b 4d 1c 3f ae 2e 22 3f b1 73 10 3f e8 65 1b 3f
       0.61055917 0.6335248 0.5642653 0.6070237
000040 df 8b 18 3f 1e 07 10 3f 9e 2b 21 3f fa 06 26 3f
       0.59588426 0.5626086 0.6295718 0.64854395
000050 5b 11 22 3f 0c e8 35 3f eb db 1a 3f fc 32 33 3f
       0.6330773 0.710572 0.6049182 0.6999967
000060 a1 a0 0f 3f a1 c5 30 3f 16 1e 0c 3f 65 53 3c 3f
       0.56104475 0.6905156 0.5473341 0.7356475
000070 82 61 e4 3e 3a c6 20 3f dc 3c f6 3e 01 ea 02 3f
       0.44605643 0.6280247 0.48093307 0.5113831
000080 04 12 29 3f 35 0a 1f 3f ea b6 3b 3f 31 26 3a 3f
       0.66043115 0.6212495 0.7332598 0.72714525
000090 ef 9c 06 3f 86 f2 eb 3e 45 e1 0a 3f 2a 41 2a 3f
       0.5258321 0.46083468 0.54249984 0.6650568
0000a0 ea 53 25 3f 75 7a 22 3f 38 6d 1c 3f ac 78 fe 3e
       0.6458117 0.63468105 0.61104155 0.4970144
0000b0 08 ba 0c 3f 96 2f 1d 3f 04 b8 2e 3f 45 39 0e 3f
       0.5497136 0.61400735 0.68249536 0.55556136
0000c0 88 4d 32 3f ba 4f 30 3f d3 20 13 3f 7f 4b fd 3e
       0.69649553 0.68871653 0.5747196 0.4947166
0000d0 12 16 1d 3f a8 94 44 3f c9 e5 28 3f 94 e1 11 3f
       0.613618 0.7678933 0.65975624 0.5698483
0000e0 50 33 1f 3f 7f e0 2d 3f 94 37 29 3f 82 69 26 3f
       0.6218767 0.6792068 0.6610043 0.6500474
0000f0 9d a3 10 3f 57 f2 fa 3e 2f 03 1d 3f 5f 88 15 3f
       0.56499654 0.49013016 0.6133298 0.5841121

model.9.bias f4 [64]
000000 41 91 f9 be 2a 39 0f bf 22 dd dd be 91 f6 0d be
       -0.48743632 -0.559466 -0.43332773 -0.13863589
000010 1b ec b2 be 01 c8 05 bf 40 47 59 be d6 5e 79 be
       -0.3494576 -0.52258307 -0.21218586 -0.24352583
000020 ef e5 0c bf 37 79 11 be 41 1b c8 bd f3 04 f2 be
       -0.5503835 -0.14206396 -0.09770823 -0.472694
000030 98 6c de be 45 9d ed be 2f 7c d4 be 52 91 de be
       -0.43442225 -0.4640905 -0.41500995 -0.43470246
000040 97 7d 99 be ec 29 a3 be bc 9c dc be 80 de 81 be
       -0.2997863 -0.3186792 -0.4308833 -0.25365067
000050 66 4c b9 be c6 fd d7 bd 13 0f 19 bf 7e 07 24 be
       -0.361911 -0.1054645 -0.59788626 -0.16018483
000060 8c d3 e6 be 6d 94 22 bf d8 6b a2 be 96 9a 04 bf
       -0.45083272 -0.6350773 -0.31722903 -0.5179838
000070 ec 05 06 be 92 0c 0a be af 47 27 bf 97 25 be be
       -0.13088197 -0.13481358 -0.65343755 -0.37138054
000080 24 f8 2f 3c 5f f7 bb be 76 31 09 bf 12 64 01 3d
       0.010740314 -0.36712167 -0.53591096 0.031589575
000090 cd 6b bb be f2 4d 10 bf 6d 4c c4 be 4c 67 c0 be
       -0.36605683 -0.56368935 -0.38339558 -0.3757881
0000a0 69 52 8c be cd 41 99 be 14 0b 43 be dd 47 da be
       -0.27406624 -0.29933015 -0.19047195 -0.42632952
0000b0 af 77 fa be 90 6d 1f bf 99 a6 21 bf 33 c8 93 be
       -0.48919436 -0.62276554 -0.6314483 -0.28863677
0000c0 72 6f 05 be ce f5 b0 be f9 b9 c2 be d3 f9 1b bd
       -0.13030794 -0.34562534 -0.3803251 -0.038080048
0000d0 4e 86 93 be 65 6d 1b bf ab c2 b4 be 45 b9 a5 be
       -0.28813404 -0.607138 -0.3530477 -0.32367912
0000e0 43 56 e4 be 04 a8 0a be f7 67 8a be d9 28 9d be
       -0.44597062 -0.13540655 -0.27032444 -0.30695227
0000f0 1a 68 cf be 21 05 dc 3c 45 77 8c be 64 2b 72 be
       -0.4050911 0.026857914 -0.27434745 -0.23649365

model.9.running_mean f4 [64]
000000 c2 f4 02 be 6e 1c e7 bc 0f 40 eb 3c 44 0e a3 bd
       -0.1278868 -0.028211799 0.028717069 -0.07961705
000010 ca 9b b6 3c 57 e7 4c bd 6e 69 46 bd e9 e4 41 be
       0.022291083 -0.05002531 -0.04844039 -0.18934979
000020 16 59 a4 bc 7e 47 74 bd 83 c7 69 bd 01 e9 ca 3c
       -0.02006201 -0.059638493 -0.057075035 0.024769308
000030 d2 0f f0 bd 06 81 b5 bd 91 62 74 3d 2c d2 9e bd
       -0.117217675 -0.088625 0.059664313 -0.07754931
000040 75 98 d0 3d b9 c8 5d bd 27 57 1f 3b 4a df 19 bd
       0.10185329 -0.054146502 0.0024313421 -0.03756646
000050 ed e0 23 be 6d 51 bf bd ff 88 df bd 56 4a dc bc
       -0.16003771 -0.093417026 -0.10914802 -0.026890915
000060 3b c6 a7 bd ee 96 ca bd 91 58 c1 bc bb e2 d7 bb
       -0.08192106 -0.09892069 -0.023601802 -0.0065883077
000070 76 ca a4 3d 7c 6b 7d 3d 86 31 9b 3d 6b 1f f4 3c
       0.08046429 0.061870083 0.07577805 0.029800138
000080 35 41 a9 bd cd 38 ad bd e3 1b 03 be 6c 62 c4 3d
       -0.082643904 -0.084580995 -0.12803607 0.09589085
000090 77 9e 80 bd b5 a5 9d bc e4 3e 08 be bc c8 66 bd
       -0.06280225 -0.019244054 -0.13305241 -0.05634378
0000a0 62 12 02 bd 38 8c d4 bb 2f ee 73 bd 0e fd 1e 3b
       -0.031755812 -0.006486442 -0.05955332 0.002425972
0000b0 57 8d 15 3e 54 26 5b bd 37 05 57 bd e0 d0 56 3d
       0.14604698 -0.05350335 -0.052495208 0.052445292
0000c0 0d 75 e6 3a c7 3f b5 bc a3 f7 f4 3d 1b 26 3f 3b
       0.0017582491 -0.022125138 0.119612955 0.0029167
0000d0 58 e2 d9 bd 17 68 3e bd b6 fc b6 3c 43 4a 0e be
       -0.10638875 -0.046485987 0.022337299 -0.13895516
0000e0 ff fd 3e 3d cf 57 fe 3b 03 57 fa bd 17 aa 51 bc
       0.04662895 0.0077619324 -0.122236274 -0.0127969
0000f0 fe b0 ae bd 1e 7e 20 bc 5d 10 d3 3a 73 eb 80 bd
       -0.08529852 -0.009795694 0.0016102899 -0.062949084

model.9.running_var f4 [64]
000000 4a a0 93 3b 95 49 94 3b 71 a3 22 3b 2b b1 02 3d
       0.004505192 0.004525373 0.0024816657 0.03190724
000010 f4 40 c1 3b ac f1 6f 3b 52 3c 6c 3b bd 8e 9f 3d
       0.0058976356 0.0036612554 0.0036046696 0.07790897
000020 8c d7 65 3b 33 45 f5 3b 25 83 8d 3b c9 3f 61 3b
       0.0035071103 0.007485056 0.004318612 0.0034370294
000030 97 bb cb 3c 69 17 d2 3b 38 76 a8 3b f9 84 20 3b
       0.024869723 0.006411482 0.005141046 0.002449332
000040 b2 22 42 3c 4c d8 3a 3b 99 fc 8e 3b 7c af 08 3c
       0.011849092 0.002851027 0.004363608 0.00834262
000050 13 63 2d 3d 37 ab cc 3c bd 34 92 3b 52 6c ce 3c
       0.042330813 0.024983985 0.0044618533 0.025198136
000060 ba 36 2d 3b d7 7d 82 3b c7 a9 a4 3b 32 54 c9 3b
       0.0026430325 0.0039822864 0.005025122 0.00614407
000070 81 f2 0f 3b 36 5f 9c 3c f8 80 7d 3b 42 20 18 3b
       0.0021964612 0.019088369 0.0038681608 0.0023212587
000080 17 11 35 3d 67 21 2d 3c a2 00 9b 3b 04 d3 16 3d
       0.04420575 0.010567046 0.0047303 0.036822334
000090 18 a8 d5 3b 19 97 ef 3a 1a f3 3c 3c 2a 62 88 3b
       0.0065202825 0.0018279284 0.011532569 0.0041620927
0000a0 df 38 ed 3c 3d b5 1a 3c f6 34 ff 3c 18 f8 5f 3b
       0.028957782 0.009442625 0.031153183 0.0034174975
0000b0 02 cc dc 3b 15 3e 3c 3b 3d 63 9b 3b 55 25 e4 3b
       0.006738187 0.0028723527 0.0047420547 0.006962458
0000c0 ed a7 99 3c 16 51 02 3c a9 6b 64 3b 19 a6 52 3c
       0.018756831 0.007953903 0.003485421 0.012856984
0000d0 85 95 87 3c 40 27 a5 3b 54 7b 80 3c 07 d1 34 3c
       0.016550789 0.0050400794 0.015683807 0.011036164
0000e0 08 40 95 3b 1b b9 f5 3c 4a 82 0e 3d 9e 16 04 3c
       0.0045547523 0.029995492 0.034792222 0.008062033
0000f0 58 de 80 3b 1f 88 83 3b b9 e9 a9 3b 0f e7 1b 3d
       0.0039327554 0.0040140296 0.0051853326 0.03806215
